MathorCup2020/Models/softmaxNet.pkl (torch_old, 219684 bytes, 11 tensors)

weight f4 [200, 3]
0.40174243 -0.84897983 -0.36255133 0.5585508 -0.013079272 -0.5784709 -0.46824986 -0.60401094
1.1592408 -0.52042097 0.9349076 -0.5904584 -0.18157406 -0.3316395 -0.30238533 0.22866005
0.9177972 -0.84027773 0.32795036 0.26955256 0.32549214 0.26030016 0.74881 0.009097551
0.76943743 -0.10382345 -0.7363047 0.113519765 0.05776469 -0.18985282 0.51327205 -0.5146617
-0.39298669 0.13983232 0.10919801 -0.14724493 -0.86784637 -0.17107867 0.88328075 0.5538206
-0.038835317 -0.97060287 0.9766365 0.07121451 -0.8983135 0.60678655 -0.032466747 -0.36110696
0.56506026 -0.42998046 -0.67337316 -0.20669153 -0.023891814 0.24431665 0.55579 -0.260956
-0.36778644 -0.8169675 -0.15432289 1.075838 -0.4221653 0.9993534 -0.8504011 -0.657495
-0.120878935 0.031780817 0.17175952 0.25444788 -0.014039069 -0.27617785 0.021023242 0.9764852
-0.89254224 -0.380124 0.90547806 -0.21742752 -0.116729535 0.29852322 -0.29174066 -0.39330202
1.0375361 -0.77855057 -0.16167222 0.96017 -0.64093906 -0.12758675 0.8990197 0.68397546
-0.019150076 -0.89305466 0.11139853 0.57928956 0.19322488 0.71737856 -0.51384056 -0.24524426
0.04683086 0.23619793 -0.22350182 0.2977989 -0.08236761 -0.2577868 0.39836955 -0.016988905
-0.31313542 -0.35352048 -0.08444372 0.08354018 0.20098919 -0.008505162 -0.29081798 0.8140055
0.109787695 -0.89658034 0.56435496 -0.28191584 0.27129972 -1.0690744 -0.24273282 1.0704204
-0.7713929 -0.4274034 0.87888515 -0.066920914 -0.29936647 0.3262565 -0.6955493 -0.10988905
-0.328931 -0.054070998 -0.007924406 -0.06257391 -0.7609565 0.086967364 0.9315555 0.7181548
-0.7676417 -0.4716908 0.48387733 -0.62830913 0.3432452 0.99268436 -0.027537156 -0.9104989
-0.13697322 0.6277279 -0.5023834 -0.5429234 0.046010505 0.11676862 0.30633453 0.20487183
-0.113636486 -0.9160554 -0.053158883 0.16218726 0.6826973 -0.53411585 -0.75152063 0.30808592
-0.6455476 0.40289032 0.5353336 -0.49712262 -0.5314798 0.3251307 -0.1460997 0.8241506
-0.72672194 -0.18201382 1.0638832 0.15977351 0.62006104 0.5365745 0.008571001 0.009744068
-0.009506489 0.44149196 -0.13360433 -0.40317652 -0.9627073 -0.20177965 0.85933197 -0.23959802
-0.34616753 -0.41231534 0.29347456 0.6628246 -0.15610503 -0.34993446 0.8756198 -0.51444316
-0.056854762 -0.02548019 0.05883124 -0.090079166 0.58006614 0.7451253 -0.7030425 0.12084659
0.9959924 -0.46501434 -0.26252854 1.227251 0.45832673 -0.58973384 -0.4788342 -1.0448511
-0.24976976 0.9823401 -0.7060176 -0.46636394 0.87773407 -0.058642756 -0.6314772 0.86722904
0.21911135 -0.11353816 -0.1312772 -0.7649062 -0.028832309 0.9469108 0.13814715 -0.12560003
-0.15731747 0.75409716 0.077971846 -0.29992196 0.0049513076 -0.06085643 0.039715815 -0.7569988
-0.2696839 0.8158211 0.2821986 -0.12153489 0.03195722 -0.011129931 0.45062205 0.2730812
0.24796477 -0.24090089 -0.88878345 -0.39011332 -0.14900422 0.7168676 0.3620773 -0.2630211
-0.23772357 0.49728554 0.26115552 -0.61122227 0.1816575 0.5282221 0.23012498 -0.110036045
00000000: 2fb1 cd3e be56 59bf 54a0 b9be 2ffd 0e3f
00000010: 714a 56bc ab16 14bf 72be efbe 76a0 1abf
00000020: 0162 943f 4f3a 05bf 1b56 6f3f 4828 17bf
00000030: 8dee 39be a7cc a9be 40d2 9abe dc25 6a3e
00000040: c2f4 6a3f 711c 57bf 1ce9 a73e cb02 8a3e
00000050: e8a6 a63e 1046 853e 03b2 3f3f e50d 153c
00000060: daf9 443f 64a1 d4bd 777e 3cbf 0d7d e83d
00000070: ab9a 6c3d c768 42be cc65 033f dfc0 03bf
00000080: 8d35 c9be 3430 0f3e 35a3 df3d 60c7 16be
00000090: 2e2b 5ebf 3f2f 2fbe b01e 623f 30c7 0d3f
000000a0: c811 1fbd 6e79 78bf da04 7a3f ead8 913d
000000b0: e0f7 65bf 5d56 1b3f dafb 04bd 03e3 b8be
000000c0: caa7 103f 6626 dcbe 2f62 2cbf f2a6 53be
000000d0: c4b8 c3bc 252e 7a3e 4148 0e3f 069c 85be
000000e0: 814e bcbe c824 51bf d206 1ebe 0fb5 893f
000000f0: 0d26 d8be a0d5 7f3f e3b3 59bf 9851 28bf
00000100: 608f f7bd 9a2c 023d bae1 2f3e fe46 823e
00000110: 2004 66bc 2f67 8dbe ef38 ac3c effa 793f
00000120: a67d 64bf 9d9f c2be 69cd 673f 52a5 5ebe
00000130: e50f efbd 09d8 983e 085f 95be e25e c9be
00000140: fccd 843f 174f 47bf 678d 25be b3cd 753f
00000150: 9514 24bf 1aa6 02be 2826 663f 0419 2f3f
00000160: 9fe0 9cbc 3b9f 64bf ea24 e43d 524c 143f
00000170: bedc 453e 1fa6 373f 0e8b 03bf 5021 7bbe
00000180: b7d1 3f3d dfdd 713e a9dd 64be 1979 983e
00000190: 59b0 a8bd a2fc 83be 18f7 cb3e 512c 8bbc
000001a0: 4953 a0be a300 b5be d4f0 acbd 1d17 ab3d
000001b0: 1cd0 4d3e 3c59 0bbc 18e6 94be aa62 503f
000001c0: 5fd8 e03d 4a86 65bf 9179 103f 4657 90be
000001d0: cce7 8a3e 6ed7 88bf f48e 78be 8903 893f
000001e0: 017a 45bf 9ed4 dabe 9efe 603f d50d 89bd
000001f0: 9046 99be 180b a73e 850f 32bf 830d e1bd
00000200: a569 a8be 8d79 5dbd 5ed5 01bc c026 80bd
00000210: 0cce 42bf f21b b23d 6c7a 6e3f fed8 373f
00000220: 2b84 44bf 7581 f1be c5be f73e ded8 20bf
00000230: d6bd af3e 9020 7e3f 9a95 e1bc 7516 69bf
00000240: b542 0cbe c7b2 203f 339c 00bf 07fd 0abf
00000250: 8375 3c3d 6324 ef3d e1d7 9c3e ecc9 513e
00000260: 3fba e8bd 9b82 6abf 21bd 59bd 6b14 263e
00000270: 40c5 2e3f d1bb 08bf a863 40bf 70bd 9d3e
00000280: 9c42 25bf a447 ce3e 9f0b 093f db86 febe
00000290: 0f0f 08bf 8877 a63e 299b 15be 89fb 523f
000002a0: 730a 3abf d561 3abe 532d 883f ab9b 233e
000002b0: 52bc 1e3f f25c 093f 626d 0c3c 95a5 1f3c
000002c0: 1bc1 1bbc 3c0b e23e 93cf 08be 276d cebe
000002d0: fc73 76bf 539f 4ebe 2efd 5b3f 2f59 75be
000002e0: df3c b1be ff1a d3be 4c42 963e dfae 293f
000002f0: ffd9 1fbe 9c2a b3be 9f28 603f 8cb2 03bf
00000300: 8ae0 68bd d5bb d0bc 07f9 703d 6d7b b8bd
00000310: 377f 143f 88c0 3e3f 98fa 33bf 6b7e f73d
00000320: 5cf9 7e3f 5c16 eebe 246a 86be 9016 9d3f
00000330: cda9 ea3e ccf8 16bf c229 f5be aebd 85bf
00000340: a5c3 7fbe a47a 7b3f 92bd 34bf 41c7 eebe
00000350: 2eb3 603f 6333 70bd 7da8 21bf b902 5e3f
00000360: ba5e 603e b286 e8bd 886d 06be e5d0 43bf
00000370: bc31 ecbc bf68 723f 7276 0d3e 4b9d 00be
00000380: d517 21be 830c 413f b4af 9f3d 5f8f 99be
00000390: 943e a23b 9844 79bd 0dad 223d acca 41bf
000003a0: 0214 8abe a7d9 503f 567c 903e 49e7 f8bd
000003b0: 93e5 023d 505a 36bc efb7 e63e 4dd1 8b3e
000003c0: 7aea 7d3e b9ae 76be 5087 63bf efbc c7be
000003d0: 9094 18be a384 373f 3262 b93e b4aa 86be
000003e0: cf6d 73be 369c fe3e 2db6 853e 1079 1cbf
000003f0: 6c04 3a3e 9039 073f e2a5 6b3e 945a e1bd

bias f4 [200]
-1.2650831 -0.52007383 -0.32272223 -0.86893666 -1.4037532 -0.5545349 -1.3433107 -1.332975
0.37949306 -0.21039411 -0.6456268 -0.64197624 -0.149576 -0.007817483 0.28115082 -0.011895724
-1.2504932 -0.62574244 -0.5143725 -0.2773486 -0.63830024 -0.77025265 -0.85169643 -0.6194396
-0.3081546 -0.24974892 -0.60259944 -0.1951578 -0.31469318 0.30594143 -1.5173242 -0.7531149
-0.44159043 -0.30028418 -0.23444429 -1.066755 -0.50202996 0.18546557 -1.3598683 -0.2746001
-0.113017604 -0.33939293 -1.0496771 -0.44030246 -0.3218492 -1.2345488 -0.8319557 0.26917645
-0.74694663 -0.556392 -0.30590096 -0.54247844 -0.3860308 -0.36499247 -1.2341925 -0.7887186
-0.29669106 -1.4444536 -0.24139042 -0.17871827 -0.14912906 -1.0980612 -1.4070452 -0.7199635
-0.385305 -1.3769854 0.29888108 -0.5457582 -0.19409697 -0.21963026 -0.20181106 -0.47783434
-0.42760876 -0.38305584 -0.5332408 -0.024235822 -0.09747639 -0.29099244 -0.86352515 -1.2817825
-0.9383275 -0.47654283 -0.4909828 0.043335617 -1.5622029 -0.7963982 -0.14119592 -1.2815267
-0.082206994 -1.4312596 -0.28217104 -0.26276168 -1.3307853 0.06761482 -0.8361282 -0.2885978
-0.8464077 -0.21802479 -0.26827523 -1.3678952 -0.39213234 -1.2233133 -0.5185314 -1.3737882
-1.5135988 -0.9348392 -0.16279468 -0.29123133 -0.43711957 0.12972237 0.11117006 -1.5854379
-1.1075917 -0.32579577 -0.63389057 -1.0851411 -0.25991985 -0.09129744 -0.33039802 -0.8869481
-0.26912493 -0.20705195 -0.21820748 -0.09715498 -0.5138681 -0.8261459 -1.2737722 -0.6335088
-0.48200727 -1.0499934 -0.31693286 -1.5412586 -0.19528913 -0.42054403 -0.8772688 -0.73434174
-0.2779743 -0.49896958 -0.8081841 -1.3018771 -0.22249122 0.09230966 -1.4290227 -0.6451073
-0.5116978 -0.7901271 -1.2965908 -0.54224485 -0.93671477 -0.3000513 -0.20285423 -0.71448535
-0.26265725 -0.33311155 -0.34593615 -0.4064585 -0.17298684 -0.4895497 -0.22233216 -0.5621881
-0.5191372 -0.16866837 -1.037891 -0.9567262 -1.4329107 -1.1314003 0.30960107 -0.41345212
-0.028655542 -0.63142455 -0.51578045 -0.6279021 -0.21835141 -0.105617635 -0.3998521 -0.48126426
-0.101025976 0.2798443 -0.35849082 -0.28876895 -0.5347841 -1.0741898 -1.4326156 -1.2713282
-1.237828 -0.50909996 0.26747504 -0.47070792 0.11970522 -0.24534324 -0.50618386 -0.4479466
0.16197184 -0.02560301 -0.28463852 0.37378776 -0.43468657 -0.4699855 -0.5695667 -0.1719632
00000000: 3eee a1bf 8f23 05bf d93b a5be a272 5ebf
00000010: 2fae b3bf 00f6 0dbf 9bf1 abbf ed9e aabf
00000020: ea4c c23e 8e71 57be cc47 25bf 8e58 24bf
00000030: 732a 19be e614 00bc 00f3 8f3e 48e6 42bc
00000040: 2910 a0bf a830 20bf ebad 03bf a300 8ebe
00000050: a567 23bf 472f 45bf c708 5abf 9893 1ebf
00000060: 71c6 9dbe 2ebe 7fbe f543 1abf 72d7 47be
00000070: 771f a1be 5ba4 9c3e ae37 c2bf 23cc 40bf
00000080: 2418 e2be d9be 99be 2a12 70be 6e8b 88bf
00000090: 0985 00bf b0ea 3d3e 2a10 aebf 6298 8cbe
000000a0: c675 e7bd e9c4 adbe d25b 86bf 536f e1be
000000b0: 6bc9 a4be b205 9ebf 0cfb 54bf 7fd1 893e
000000c0: e537 3fbf b56f 0ebf 0d9f 9cbe dedf 0abf
000000d0: d4a5 c5be 4be0 babe 05fa 9dbf 76e9 49bf
000000e0: e4e7 97be dbe3 b8bf 0d2f 77be ec01 37be
000000f0: 4ab5 18be 458d 8cbf 0f1a b4bf 874f 38bf
00000100: b246 c5be 0f41 b0bf f106 993e cfb6 0bbf
00000110: 5bc1 46be c1e6 60be 8fa7 4ebe b4a6 f4be
00000120: 89ef dabe e51f c4be 7882 08bf 348a c6bc
00000130: b4a1 c7bd f6fc 94be fc0f 5dbf 7311 a4bf
00000140: 3b36 70bf 6cfd f3be 1962 fbbe b080 313d
00000150: 44f6 c7bf c1e0 4bbf aa95 10be 1109 a4bf
00000160: 245c a8bd 8433 b7bf b978 90be b388 86be
00000170: 2c57 aabf a479 8a3d 7f0c 56bf 17c3 93be
00000180: 2dae 58bf e441 5fbe 5f5b 89be 3117 afbf
00000190: 92c5 c8be 8895 9cbf 79be 04bf 4bd8 afbf
000001a0: 9bbd c1bf 9f51 6fbf a6b3 26be 461c 95be
000001b0: 23ce dfbe f1d5 043e 21ad e33d a1ef cabf
000001c0: 91c5 8dbf b4ce a6be a746 22bf e7e5 8abf
000001d0: 3714 85be 27fa babd ee29 a9be 080f 63bf
000001e0: beca 89be 6d05 54be c871 5fbe 31f9 c6bd
000001f0: dc8c 03bf 4c7e 53bf f80a a3bf a22d 22bf
00000200: a8c9 f6be 2f66 86bf 0645 a2be f647 c5bf
00000210: e0f9 47be 8c51 d7be b094 60bf d2fd 3bbf
00000220: a652 8ebe f178 ffbe 27e5 4ebf e9a3 a6bf
00000230: bdd4 63be d90c bd3d 37ea b6bf c125 25bf
00000240: a1fe 02bf c545 4abf b0f6 a5bf 8fd0 0abf
00000250: 8acc 6fbf 53a0 99be 05b9 4fbe 83e8 36bf
00000260: 037b 86be 998d aabe 8b1e b1be 541b d0be
00000270: 7623 31be 42a6 fabe 0bab 63be 8feb 0fbf
00000280: 2de6 04bf 67b7 2cbe 9dd9 84bf 02ec 74bf
00000290: 9e69 b7bf bad1 90bf 0884 9e3e ffaf d3be
000002a0: 07bf eabc 0aa5 21bf 300a 04bf 31be 20bf
000002b0: 8397 5fbe 0f4e d8bd 6ab9 ccbe 4568 f6be
000002c0: b5e6 cebd c147 8f3e 1c8c b7be 86d9 93be
000002d0: 9ce7 08bf 0d7f 89bf f35f b7bf e2ba a2bf
000002e0: 2671 9ebf 6054 02bf 7df2 883e a100 f1be
000002f0: 0328 f53d 423b 7bbe 4495 01bf 4259 e5be
00000300: f2db 253e 67bd d1bc 24bc 91be 1c61 bf3e
00000310: 3d8f debe f1a1 f0be 20cf 11bf 1f17 30be

weight f4 [150, 200]
-0.6248032 0.1166968 -0.4117533 0.21497977 -0.22620912 -0.015744714 -0.19549367 -1.1925497
0.20499076 -0.13269141 -0.178248 0.30836213 -0.355545 0.0694877 0.14928474 -0.19837888
-0.8192103 0.14589213 -0.0982881 -0.7874967 0.34962046 -0.3132605 -0.09560252 0.08644895
-0.47165537 -0.24823368 -0.18331479 -0.035531025 0.24461348 0.25703767 -0.24753657 0.13216825
0.31379452 0.3055616 -0.24058634 -0.17003366 0.0090444265 0.41557363 -0.34550643 -0.63522166
-0.8379751 0.054702 -0.043952398 -0.038472638 -0.2812689 -0.2940711 -0.10287109 -0.014887128
-0.21869695 -0.43399075 0.20630205 -0.2206395 -0.3484925 -0.26216227 -0.62236464 -0.41845396
-0.53273535 0.012872271 0.004882289 -0.010520119 -0.42925674 -0.71671724 -0.8662359 -0.3126079
0.024139464 -0.40805906 -0.54348665 -0.3362784 -0.31080475 0.19821692 0.0014975867 0.3048326
0.03975692 -0.66675603 -0.08786835 0.05318925 0.19344956 -0.09768164 -0.25098157 -0.3670571
0.041660275 0.08013926 -0.059045408 0.64011115 -0.50689715 -0.3499837 0.06648889 -0.469474
-0.052636266 -0.98146254 -0.20679182 0.09771104 -0.26415625 -0.08151408 0.4479699 -0.2584823
-0.1426008 0.059094504 -0.37970272 -0.50593644 -0.30050328 -0.43197203 0.022745803 -0.98997205
-0.45548207 -0.5882357 0.4079713 0.16463286 -0.17861731 -0.0051492783 -0.03258491 -0.8109776
-0.44443747 0.27193683 0.22752044 -0.44644243 -0.108507 -0.28784186 -0.1351688 -0.026705675
-0.21101758 -0.3571663 -0.26102287 -0.21324134 -0.22761275 0.386368 0.08961502 -0.11603489
-0.019797144 -0.4821988 -0.06022219 -0.8594195 0.1995352 0.2705816 0.36174217 -0.15609287
0.07301962 -0.4681102 -0.12342271 -0.4239475 -0.09227009 0.015985142 -0.18554182 0.09317723
-0.13467811 -0.30174792 -0.35617796 -0.721269 -0.64942145 0.04916779 -0.577826 -0.09910741
-0.48668358 -0.053455323 0.4356611 -0.668639 -0.0015989299 -0.2880446 -0.09528121 -0.4267695
-0.018494284 -0.41438088 -0.022746794 -0.27761033 -0.5248283 0.24805441 0.3867167 -0.025173096
-0.033530377 -0.13368423 -0.5860719 -0.41275224 -0.27983972 0.29536474 -0.010112115 -0.5107117
0.21270381 0.06765933 -0.25437197 -0.48742068 -0.21711613 -1.0733523 -0.14045438 -0.16171563
-0.9461346 -0.09187652 -0.72734344 0.0016657133 -0.24934416 -0.3893247 0.06221266 -0.14433482
0.17724209 0.06455279 -0.5220548 -0.37965432 -0.32506302 0.0642832 0.30985147 0.058334086
-1.1059934 -0.061718002 -0.37823156 -0.3069705 0.5509714 -0.8611936 0.029044548 0.15539451
-0.35806537 0.09071168 -0.48281044 -0.10111977 0.18336836 0.1390347 0.20156129 -0.61851764
0.23730664 -0.0628453 -0.18430902 -0.1331968 0.19925374 0.54511696 -0.0948055 -0.8799629
0.47149855 0.2826635 0.1759435 0.24180296 -0.30231267 -0.42179155 -0.028032431 -0.016826518
0.18405034 -0.13624412 0.34104273 0.1994778 0.15754186 -0.47537905 -0.22398856 0.035337932
-0.38653073 -0.11704861 0.11750011 -0.0335581 -0.20221353 0.13039848 0.21579726 -0.3875887
-0.37944025 -0.5550741 0.061685078 0.15008852 0.16418451 -0.23591039 0.771485 -0.25752318
00000000: 1af3 1fbf bbfe ee3d 54d1 d2be a823 5c3e
00000010: 5da3 67be 0ffb 80bc 7e2f 48be 78a5 98bf
00000020: 19e9 513e 42e0 07be a586 36be a4e1 9d3e
00000030: ff09 b6be 914f 8e3d 19de 183e d523 4bbe
00000040: c4b7 51bf bf64 153e 454b c9bd 6299 49bf
00000050: 7401 b33e ae63 a0be 41cb c3bd 260c b13d
00000060: d07c f1be f830 7ebe dfb6 3bbe fb88 11bd
00000070: f57b 7a3e 719a 833e 3a7a 7dbe 1d57 073e
00000080: ada9 a03e 9272 9c3e 445c 76be 4e1d 2ebe
00000090: 132f 143c 11c6 d43e 38e6 b0be e39d 22bf
000000a0: 8985 56bf 340f 603d 6e07 34bd 7c95 1dbd
000000b0: 7a02 90be 7d90 96be 14ae d2bd 24e9 73bc
000000c0: 18f2 5fbe 0934 debe d840 533e 52ef 61be
000000d0: 9c6d b2be 223a 86be 4a53 1fbf 993f d6be
000000e0: 5861 08bf 38e6 523c 9cfb 9f3b 945c 2cbc
000000f0: 8ac7 dbbe c87a 37bf a3c1 5dbf 250e a0be
00000100: 20c0 c53c 1eed d0be f121 0bbf af2c acbe
00000110: cd21 9fbe 60f9 4a3e ac4a c43a 0513 9c3e
00000120: 27d8 223d 86b0 2abf 52f4 b3bd f9dc 593d
00000130: a417 463e 500d c8bd a880 80be e9ee bbbe
00000140: f7a3 2a3d 0d20 a43d 99d9 71bd 53de 233f
00000150: 03c4 01bf 1031 b3be 542b 883d e55e f0be
00000160: 2099 57bd 2141 7bbf 3cc1 53be ba1c c83d
00000170: 7d3f 87be dbf0 a6bd 505c e53e cb57 84be
00000180: f205 12be 140d 723d 6568 c2be 0d85 01bf
00000190: 91db 99be 702b ddbe 6855 ba3c cf6e 7dbf
000001a0: f234 e9be 9d96 16bf 9de1 d03e 8495 283e
000001b0: 75e7 36be 47bb a8bb c177 05bd 3a9c 4fbf
000001c0: 4f8d e3be 4e3b 8b3e 1efb 683e 1a94 e4be
000001d0: eb38 debd 0260 93be b169 0abe dcc5 dabc
000001e0: fe14 58be 80de b6be caa4 85be f05b 5abe
000001f0: 5113 69be 07d2 c53e 1488 b73d b3a3 edbd
00000200: 9f2d a2bc c3e2 f6be 8bab 76bd eb02 5cbf
00000210: f552 4c3e ac89 8a3e 4536 b93e cfd6 1fbe
00000220: 4f8b 953d 24ac efbe 0cc5 fcbd a60f d9be
00000230: 1af8 bcbd 46f3 823c adfe 3dbe b4d3 be3d
00000240: 0fe9 09be b47e 9abe f55c b6be 16a5 38bf
00000250: 7c40 26bf 2a64 493d 68ec 13bf d3f8 cabd
00000260: 972e f9be f8f3 5abd f90e df3e ed2b 2bbf
00000270: 2f93 d1ba 957a 93be cc22 c3bd 8881 dabe
00000280: 5381 97bc bb29 d4be 7c57 babc f122 8ebe
00000290: 265b 06bf fa01 7e3e bbff c53e cf37 cebc
000002a0: 2657 09bd 85e4 08be cf08 16bf 4354 d3be
000002b0: 2747 8fbe 0c3a 973e 49ad 25bc 01be 02bf
000002c0: 07cf 593e fa90 8a3d 0b3d 82be 348f f9be
000002d0: b153 5ebe 9c63 89bf 46d3 0fbe c898 25be
000002e0: e135 72bf c229 bcbd 2e33 3abf 1054 da3a
000002f0: 1354 7fbe 9155 c7be b4d2 7e3d 82cc 13be
00000300: f37e 353e 4134 843d 62a5 05bf 0d62 c2be
00000310: a96e a6be e9a6 833d daa4 9e3e b9ef 6e3d
00000320: 3191 8dbf 04cc 7cbd 91a7 c1be 3d2b 9dbe
00000330: 760c 0d3f 2f77 5cbf d5ee ed3c bd1f 1f3e
00000340: 5854 b7be 0cc7 b93d ee32 f7be e217 cfbd
00000350: eac4 3b3e 1d5f 0e3e 1566 4e3e 2c57 1ebf
00000360: 8300 733e 09b5 80bd 81bb 3cbe be64 08be
00000370: 2c09 4c3e c98c 0b3f 6329 c2bd 4045 61bf
00000380: 4268 f13e 45b9 903e 882a 343e 329b 773e
00000390: bac8 9abe 10f5 d7be 45a4 e5bc c4d7 89bc
000003a0: b177 3c3e 9483 0bbe 279d ae3e e943 4c3e
000003b0: a752 213e e264 f3be 425d 65be 82be 103d
000003c0: 5be7 c5be 2eb7 efbd e6a3 f03d 3874 09bd
000003d0: 1011 4fbe 2e87 053e f5f9 5c3e 0772 c6be
000003e0: fe45 c2be 5619 0ebf 7ea9 7c3d ceb0 193e
000003f0: fc1f 283e 7e92 71be 0a80 453f 14da 83be

bias f4 [150]
0.46629083 -0.90430176 -0.4315634 -0.6086061 0.8949357 -0.33813637 -0.19437824 -0.4947587
-0.2926866 -1.1802645 -0.07350484 -0.070875555 -0.99225026 -0.0045547723 -0.14484897 -0.101477146
-0.3591901 0.12060332 -0.3676449 -0.61500233 0.7805177 0.121069655 -0.55506176 -0.056355406
-2.371232 -0.23490256 0.47409523 -0.22634771 -0.053729646 -0.45757094 0.7711635 -0.15414847
-0.34519842 -0.40048382 -0.097140044 -0.340999 -0.21895075 -0.8851899 -0.18185823 -0.54841685
0.44925433 0.48416755 -0.75914633 -0.87209445 -0.36780486 -0.22330555 0.41997233 -0.3618168
0.46598557 -0.33014548 -0.58024526 -0.3012419 0.52800214 -0.42577553 -0.36763743 0.2076131
0.08240705 -0.22253245 -0.4017336 -0.19973242 0.54058903 0.532566 -1.3949908 -0.053433515
-0.2546942 -1.5754976 -0.17620113 0.7140159 0.3784025 -0.57612413 -0.5061189 0.54660374
-0.34811324 0.4005138 -0.33583704 -0.18341929 0.24054495 -0.16976254 0.20949845 -0.2577672
-0.5828155 -0.77177006 0.55594873 -0.7132597 0.44013524 -0.24367738 -0.4153352 -0.079410665
-0.22686109 -0.16530919 0.50188434 0.28118664 0.55360234 -2.2043781 0.7386807 0.65722936
-0.36408255 0.7327002 -0.40224963 -2.0355792 0.33246914 0.29818618 0.24386542 -0.521972
-0.74374384 -0.07559063 -0.33757797 0.3354069 0.45822242 -0.8450731 0.07404587 0.4642172
0.21366057 -0.759056 -0.11547184 -0.0773541 0.679675 0.3092651 -0.39447606 0.43105555
-0.36240107 -0.29837587 0.0017056372 -0.482225 -0.48328102 0.29410917 0.42193085 -0.07142151
-0.17180994 -0.43050423 -0.8740589 -0.2187223 -0.53716224 0.24197996 0.29179138 0.29026777
0.03911243 -0.30382174 -1.0817269 -0.8307561 -0.46669075 -2.451661 -0.96605104 -0.35242763
0.16450551 -0.15364218 -0.35147297 -0.25662118 0.104504354 -0.2845009
00000000: acbd ee3e 5280 67bf e1f5 dcbe 9ccd 1bbf
00000010: 821a 653f 3620 adbe 170b 47be 0351 fdbe
00000020: 05db 95be e812 97bf b589 96bd 3427 91bd
00000030: 1d04 7ebf 3340 95bb 4a53 14be 40d3 cfbd
00000040: c4e7 b7be e0fe f63d f43b bcbe cb70 1dbf
00000050: 02d0 473f 5ef3 f73d 8718 0ebf edd4 66bd
00000060: 44c2 17c0 4c8a 70be 9cbc f23e b2c7 67be
00000070: 9e13 5cbd bd46 eabe f96a 453f 19d9 1dbe
00000080: d9bd b0be 370c cdbe 5cf1 c6bd 6c97 aebe
00000090: a034 60be ce9b 62bf 0b39 3abe 0c65 0cbf
000000a0: aa04 e63e cfe4 f73e 6a57 42bf 9541 5fbf
000000b0: eb50 bcbe 36aa 64be 9d06 d73e 0d40 b9be
000000c0: a995 ee3e d408 a9be f48a 14bf 613c 9abe
000000d0: 262b 073f 40ff d9be f93a bcbe 8798 543e
000000e0: 07c5 a83d 8cdf 63be 07b0 cdbe a886 4cbe
000000f0: 0b64 0a3f 3f56 083f 0f8f b2bf 1add 5abd
00000100: 4767 82be e8a9 c9bf 126e 34be bfc9 363f
00000110: f9bd c13e df7c 13bf 0291 01bf 39ee 0b3f
00000120: e63b b2be 2510 cd3e d5f2 abbe 44d2 3bbe
00000130: 6a51 763e 3bd6 2dbe c386 563e 10fa 83be
00000140: 6633 15bf b992 45bf a852 0e3f 3098 36bf
00000150: 6859 e13e 9086 79be d1a6 d4be 0fa2 a2bd
00000160: 464e 68be d046 29be 7e7b 003f b2f7 8f3e
00000170: e2b8 0d3f 8814 0dc0 2e1a 3d3f 2f40 283f
00000180: 0769 babe 3e92 3b3f aaf3 cdbe ee46 02c0
00000190: 6539 aa3e dcab 983e dbb7 793e f59f 05bf
000001a0: ff65 3ebf 43cf 9abd 05d7 acbe 74ba ab3e
000001b0: 219c ea3e b656 58bf 5ca5 973d e0ad ed3e
000001c0: d6c9 5a3e 7e51 42bf 807c ecbd d46b 9ebd
000001d0: 2eff 2d3f ff57 9e3e c4f8 c9be 50b3 dc3e
000001e0: a28c b9be b9c4 98be b08f df3a 32e6 f6be
000001f0: 9c70 f7be 7a95 963e 5207 d83e 7145 92bd
00000200: f2ee 2fbe 0d6b dcbe 53c2 5fbf bdf8 5fbe
00000210: 7783 09bf 98c9 773e ae65 953e fa9d 943e
00000220: 5b34 203d 868e 9bbe 0776 8abf 6fac 54bf
00000230: 17f2 eebe 04e8 1cc0 1f4f 77bf 6571 b4be
00000240: 2274 283e 6054 1dbe 44f4 b3be da63 83be
00000250: 6106 d63d 1aaa 91be

weight f4 [100, 150]
0.15224448 0.32072616 -0.08419954 -0.00134228 0.4763968 0.0956874 -0.27755043 0.8835528
-0.15468387 -0.17341277 0.33611307 0.014475352 0.3542475 -0.30977228 0.80574954 -0.017514212
0.023787638 0.22592947 0.12414349 0.10158538 -0.3108654 -0.11930346 -0.7455603 0.5524225
-0.13499634 0.6705059 0.38983384 0.1861154 -0.05013807 0.1636995 0.6193738 0.43654314
0.103179544 -0.16519998 0.147272 0.04330256 -0.32755327 0.18936178 -0.029395446 -0.24734628
-0.5638128 -0.25701073 0.076691024 0.3360071 0.4402562 0.36254644 0.687256 -0.2942312
-1.0857366 0.10720931 0.18567508 0.098112606 -0.3369983 -0.43640745 0.106813304 0.7352557
0.30804622 0.09687439 0.06428082 0.042943157 0.027272142 -0.06859875 0.28014836 -1.0423844
0.44537625 0.25435838 0.012170736 0.596402 0.0048895064 0.19068888 -0.008933684 -0.17905155
-0.17083304 -0.082149945 0.102042034 -0.06035523 0.5449713 0.15152134 0.39114705 0.19924164
0.04786815 0.009576369 -0.33945885 0.33536384 0.59509623 -0.32917246 -0.042624883 -0.026416408
-0.037431855 -0.54332185 0.006088493 0.42930725 -0.52897674 0.84660286 -0.04169575 -0.24263541
0.25462186 0.02402621 -0.079538755 -0.07389786 -0.4823592 0.0119049335 0.30924925 -0.1409232
0.8075536 -0.41914815 -0.37309915 0.5279773 0.53410316 0.26108482 0.93498653 -0.17647626
0.025474168 0.15097818 0.5341111 -0.10323082 0.23333938 -0.19705318 0.3424652 -0.19024093
-0.032943964 0.26820734 0.086793445 -0.2416206 -0.90716076 -0.026807254 0.21358454 0.37010494
-0.78101116 -0.0030667256 0.06601647 -0.28613037 -0.47430074 -0.23083274 0.45421746 -0.3829534
-0.37660372 0.09448103 -0.655845 0.2807212 0.07947134 0.92694443 -0.70795393 -0.34051916
0.4360498 0.41875738 0.5881074 -0.44557503 -0.19318391 0.030868446 -0.1227907 -0.04124081
-0.072971225 0.028549187 -0.3759626 0.028289568 -0.04867685 -0.1206348 -0.04842568 -0.13170435
-0.24957775 0.073350266 -0.10784793 -0.052861836 -0.15231279 -0.030384377 -0.12897591 -0.16156115
-0.04837209 -0.041108582 -0.049381066 -0.13114136 7.557602e-05 -0.18463095 0.013177178 -0.3587978
-0.07878971 -0.12292071 -0.36703432 -0.012500949 -0.29317024 -0.03713316 -0.043144982 0.0038948145
-0.060685385 -0.11004431 -0.07350549 -0.081574336 -0.10731359 -0.00030257786 -0.5920252 -0.15290126
-0.19215661 -0.171801 -0.13399588 -0.13739614 -0.22119457 0.037589055 -0.23278551 -0.03773308
-0.07660947 -0.11022181 -0.20855297 0.04946459 -0.023052257 -0.10541524 -0.1449316 -0.06471726
-0.0067740204 -0.018047558 -0.2921307 0.04037073 -0.3161175 0.020490192 -0.20714533 -0.10648945
0.059551716 -0.029201921 -0.047540322 -0.014991033 -0.22556962 -0.17871642 -0.036112666 -0.03822777
0.03852941 -0.11523825 0.008289446 -0.049375433 -0.23488677 -0.091675416 -0.11018644 -0.09858763
-0.23176871 -0.08350803 -0.09691543 -0.077511914 0.03586607 -0.04433058 -0.03927197 -0.11470328
-0.26743573 -0.1504831 0.13815747 -0.040105455 -0.22688717 0.070654675 -0.11826657 -0.07587096
0.01585513 -0.5120932 -0.07883301 -0.18212296 -0.27371463 -0.028946942 -0.26428497 -0.07352471
00000000: fae5 1b3e 3836 a43e cf70 acbd 71ef afba
00000010: 48ea f33e c1f7 c33d 171b 8ebe 8430 623f
00000020: 7365 1ebe 1e93 31be 0317 ac3e 072a 6d3c
00000030: ee5f b53e 799a 9ebe 9a45 4e3f f779 8fbc
00000040: 4bde c23c 0e5a 673e f13e fe3d ff0b d03d
00000050: c029 9fbe 5f55 f4bd 0add 3ebf 906b 0d3f
00000060: 7b3c 0abe 46a6 2b3f 4d98 c73e 0995 3e3e
00000070: 945d 4dbd d7a0 273e 488f 1e3f 9582 df3e
00000080: cc4f d33d 2f2a 29be 79ce 163e 065e 313d
00000090: 10b5 a7be 0ee8 413e b8ce f0bc 5848 7dbe
000000a0: 0956 10bf e996 83be 2f10 9d3d 1f09 ac3e
000000b0: 4369 e13e b09f b93e 02f0 2f3f 79a5 96be
000000c0: 6bf9 8abf 8e90 db3d 9c21 3e3e 43ef c83d
000000d0: 0b8b acbe cc70 dfbe efc0 da3d b839 3c3f
000000e0: 3cb8 9d3e 1566 c63d aaa5 833d 2ae5 2f3d
000000f0: d469 df3c 807d 8cbd 9b6f 8f3e da6c 85bf
00000100: 5b08 e43e 433b 823e c467 473c cdad 183f
00000110: 2738 a03b f243 433e 965e 12bc 4a59 37be
00000120: dbee 2ebe 3b3e a8bd 6afb d03d 0c37 77bd
00000130: 3d83 0b3f 6928 1b3e 6d44 c83e 0006 4c3e
00000140: 6511 443d 34e6 1c3c 8dcd adbe cfb4 ab3e
00000150: 3a58 183f 4b89 a8be 6e97 2ebd 3967 d8bc
00000160: 2552 19bd 2417 0bbf fb81 c73b 29ce db3e
00000170: 056b 07bf f7ba 583f 2ac9 2abd 6b75 78be
00000180: cc5d 823e 9dd2 c43c 37e5 a2bd c357 97bd
00000190: c9f7 f6be e90c 433c eb55 9e3e 2c4e 10be
000001a0: d5bb 4e3f 969a d6be da06 bfbe 8529 073f
000001b0: fcba 083f e9ac 853e 475b 6f3f 31b6 34be
000001c0: 34af d03c 069a 1a3e 81bb 083f ae6a d3bd
000001d0: 85f0 6e3e 4fc8 49be 9957 af3e 85ce 42be
000001e0: 40f0 06bd 7952 893e c3c0 b13d 646b 77be
000001f0: b03b 68bf e39a dbbc e8b5 5a3e 657e bd3e
00000200: 59f0 47bf 1efb 48bb a533 873d ae7f 92be
00000210: 8cd7 f2be 6b5f 6cbe 318f e83e 7812 c4be
00000220: 34d2 c0be 457f c13d 75e5 27bf b0ba 8f3e
00000230: dfc1 a23d 3b4c 6d3f 783c 35bf 8758 aebe
00000240: eb41 df3e 5e67 d63e 358e 163f 6922 e4be
00000250: 01d2 45be d3df fc3c b179 fbbd 20ec 28bd
00000260: f071 95bd fcdf e93c 2b7e c0be 86bf e73c
00000270: 6061 47bd 610f f7bd 015a 46bd 81dd 06be
00000280: 4f91 7fbe aa38 963d 60df dcbd a785 58bd
00000290: e2f7 1bbe a8e8 f8bc 4312 04be 4970 25be
000002a0: d021 46bd 7961 28bd cd43 4abd ec49 06be
000002b0: 917e 9e38 e50f 3dbe 17e5 573c 58b4 b7be
000002c0: 805c a1bd dabd fbbd eceb bbbe c8d0 4cbc
000002d0: 691a 96be f118 18bd cbb8 30bd 2540 7f3b
000002e0: 3d91 78bd e95e e1bd 0c8a 96bd 7210 a7bd
000002f0: 3ac7 dbbd 50a3 9eb9 f78e 17bf 2692 1cbe
00000300: b4c4 44be 9aec 2fbe 3736 09be 93b1 0cbe
00000310: d480 62be fbf6 193d 535f 6ebe 018e 1abd
00000320: 6de5 9cbd f9bb e1bd e98e 55be 629b 4a3d
00000330: 16d8 bcbc f2e3 d7bd f368 14be 7c8a 84bd
00000340: 9af8 ddbb 79d8 93bc 2892 95be c75b 253d
00000350: 27da a1be 0cdb a73c e81d 54be 2417 dabd
00000360: 80ec 733d de38 efbc a4b9 42bd f39c 75bc
00000370: b9fb 66be 7001 37be e0ea 13bd b994 1cbd
00000380: 04d1 1d3d 0802 ecbd 75d0 073c e53d 4abd
00000390: 2886 70be 52c0 bbbd 6ea9 e1bd 50e8 c9bd
000003a0: c754 6dbe 4206 abbd 997b c6bd 91be 9ebd
000003b0: 4de8 123d fb93 35bd a5db 20bd 8ee9 eabd
000003c0: 56ed 88be 3e18 1abe 2779 0d3e 9e45 24bd
000003d0: 1c55 68be 66b3 903d be35 f2bd 3c62 9bbd
000003e0: 9ee2 813c 8a18 03bf 3373 a1bd 717e 3abe
000003f0: 5324 8cbe 2322 edbc 5c50 87be 2094 96bd

bias f4 [100]
0.109113134 -0.24920416 0.3507634 -0.95223314 -1.344973 -1.5638005 -0.051229265 -0.21862121
-1.1108108 -0.11045877 -1.0392646 -1.1343206 -1.2581767 0.21056673 -0.7161366 -0.28391877
0.3621325 0.2581961 -1.8943603 -0.59274685 -1.0469226 -0.64961725 0.09866737 -1.6096865
0.36870086 -0.63091457 -1.4215322 -0.051361952 -1.070829 -1.0774195 -1.349097 0.20873472
-0.26383626 -0.23672192 -0.07323015 -1.1138101 0.93072915 -0.367122 -0.3701119 -0.35762173
-0.3494536 -0.7396865 -1.7046843 0.5886288 -0.109960556 -0.15369758 -0.64115727 -0.507813
-0.20656383 -0.11450982 -0.2652539 -1.6627749 -0.9373656 0.46968347 -0.0059388457 -1.4609479
-1.2751939 -0.39785916 0.28463855 -0.8109577 -0.28833038 -0.1938035 -0.9064913 0.13171332
-0.1412166 -0.4630491 -1.577315 -0.11811423 -1.1071131 -1.5681527 -0.12076927 -0.9550366
-0.8757323 -0.27908126 -0.33689195 0.11417671 0.33020192 -0.17852245 0.5884069 -0.06627011
-0.60227644 -1.5853461 -0.37077007 -0.24664126 0.13993505 -0.30535066 -0.7053569 -0.06568286
-1.5216823 0.07618579 -1.1809657 -0.24430834 -0.27887243 -0.6725146 0.58653027 0.4110509
0.45130673 0.22441615 -1.5084342 -0.5920379
00000000: b576 df3d 602f 7fbe 4397 b33e 8dc5 73bf
00000010: 1328 acbf 9d2a c8bf c7d5 51bd 3dde 5fbe
00000020: 0c2f 8ebf 3538 e2bd 9f06 85bf 6b31 91bf
00000030: ef0b a1bf ce9e 573e ba54 37bf cd5d 91be
00000040: 6e69 b93e 4732 843e 667a f2bf 42be 17bf
00000050: 8f01 86bf 514d 26bf 1e12 ca3d 350a cebf
00000060: 5cc6 bc3e 9e83 21bf c4f4 b5bf e960 52bd
00000070: ed10 89bf e2e8 89bf 36af acbf 8ebe 553e
00000080: 8c15 87be 3b67 72be b0f9 95bd 5491 8ebf
00000090: 4444 6e3f 6af7 bbbe 4f7f bdbe 321a b7be
000000a0: 95eb b2be 185c 3dbf 1833 dabf 61b0 163f
000000b0: 0033 e1bd e662 1dbe e222 24bf 0800 02bf
000000c0: 7885 53be 2084 eabd 5ccf 87be cfd5 d4bf
000000d0: 31f7 6fbf 5a7a f03e a69a c2bb 5700 bbbf
000000e0: 8e39 a3bf 32b4 cbbe 25bc 913e ec9a 4fbf
000000f0: 0aa0 93be 6d74 46be d00f 68bf dbdf 063e
00000100: 169b 10be c614 edbe 75e5 c9bf e0e5 f1bd
00000110: e2b5 8dbf 3ab9 c8bf e155 f7bd 477d 74bf
00000120: fe2f 60bf bde3 8ebe 1a7d acbe 7bd5 e93d
00000130: 3a10 a93e 97ce 36be d6a1 163f a0b8 87bd
00000140: ca2e 1abf 9fec cabf 93d5 bdbe 878f 7cbe
00000150: 224b 0f3e ec56 9cbe 4592 34bf bc84 86bd
00000160: 7cc6 c2bf 4c07 9c3d e229 97bf f72b 7abe
00000170: 5ec8 8ebe eb29 2cbf d926 163f 4375 d23e
00000180: ad11 e73e 59cd 653e 5f14 c1bf cc8f 17bf

weight f4 [50, 100]
0.32234135 -0.0320713 -0.8154146 0.42167708 1.3581762 0.26848558 -0.11638183 0.11053532
0.5032651 -0.58936375 0.056210555 0.32279405 -0.49827707 0.14427659 0.57089007 -0.25105107
-1.0813061 -0.47855866 0.3644747 0.12025984 1.0212305 -0.113095276 -0.3825629 0.79880995
-0.42905632 -0.036998853 0.82290626 0.040660664 0.9543865 0.5603102 0.50184053 -0.05192234
0.4774957 -0.12950109 -0.012665535 0.36768928 -1.1629713 -0.24200313 -0.34269744 0.5604729
0.042266954 -0.4186276 0.4710638 -0.0059118434 0.19508685 -0.12771447 0.1262396 -0.29968494
-0.43028772 -0.45052493 0.06455338 0.2448982 0.37637454 -0.55183494 -0.37562996 0.9682277
0.61766344 0.2905487 -0.9546397 0.7504129 -0.088504836 0.38877207 -0.4998075 0.024068445
-0.2846624 -0.3943616 0.38899875 -0.70331246 1.205745 0.60045445 0.1190968 0.45063272
0.62284034 -0.43448862 -0.08556063 -0.65452826 -1.0278909 -0.08937394 -0.3487886 -0.65507644
0.044270985 1.1416364 -0.3214453 0.31713253 -0.7279329 -0.3744629 0.29914352 0.5154734
-0.20446216 -0.13537692 0.34732652 -0.27187645 -0.30646002 0.14657342 -0.016508758 0.09777187
-0.36894453 -0.13260956 0.38413116 -0.061794497 -0.6743744 -0.18056406 -0.8777669 0.13746718
0.3777834 0.19409715 0.4274476 0.0062601534 0.6957662 0.51306534 -0.49520782 0.33015245
-0.22257501 0.025334852 -0.0195513 -0.21955235 -0.25631052 0.12039641 -0.57528913 -0.24887818
-1.073337 0.19344549 0.29279703 -0.25806952 -0.22968236 0.15475167 -0.5352061 0.6965815
0.48548314 0.08849478 -0.09272207 0.66231716 0.25320536 -0.4916773 0.21975756 0.1567822
0.21763416 0.22469956 0.6621356 -0.19582376 0.1291029 -0.20613046 -0.5058995 -0.57237494
0.2717654 -0.11091057 -0.20467599 -0.42806283 -0.5098331 -0.36692503 -0.29930776 -0.22720698
-0.070625156 0.058616996 -0.8190526 0.29268023 -0.25961748 0.20621747 0.03311424 -0.56818604
0.006893091 -0.33913773 -0.4921823 0.38007548 0.050640266 0.15805061 -0.27265897 0.6520107
-0.34625283 -0.26977578 0.45319682 -0.6054844 0.31127837 0.5479532 0.044243697 0.5319235
0.7513898 -0.02495186 0.14021413 0.6248099 0.18056907 -0.2766129 0.043474108 -0.116835974
-0.096376404 0.15970375 -0.045239355 0.162493 -0.41453472 0.5617978 -0.54726535 0.46922234
0.117583945 0.63173896 -0.9720003 0.41187498 0.61934644 0.6744843 -0.18741477 0.39661148
0.2231326 0.08666026 -0.78028756 0.25104612 -0.30080974 -0.18960465 -0.023050753 -0.2224011
-0.22945783 0.11393964 0.37400326 -0.22554804 0.90174377 0.10776577 0.41891766 -0.8221927
-0.44580084 -0.2005249 0.382768 -0.40042624 -0.17490357 0.16552177 0.14026845 -0.9703985
0.8077372 -0.097263075 0.5663027 -0.6832713 -0.29741213 0.33749223 0.8935738 -0.274592
-0.94643056 -0.26853892 -0.28824064 0.62820137 -0.32488993 -0.5441142 -0.24452826 0.12078494
-0.5111137 0.05186664 -0.86627245 -0.22352485 0.1993412 -0.86134934 -0.3679858 0.10585287
-0.7767322 0.0053901086 -0.48970172 -0.7963085 -0.83631665 -0.68273455 -0.8341769 0.32249445
00000000: ed09 a53e 325d 03bd 03bf 50bf 0fe6 d73e
00000010: b8d8 ad3f f176 893e 9959 eebd 5860 e23d
00000020: fbd5 003f 8be0 16bf 0a3d 663d 4345 a53e
00000030: 2c1e ffbe 3ebd 133e da25 123f c489 80be
00000040: 3d68 8abf a405 f5be 6e9c ba3e ca4a f63d
00000050: aeb7 823f 7f9e e7bd 49df c3be cf7e 4c3f
00000060: 45ad dbbe 1c8c 17bd fca9 523f cc8b 263d
00000070: ac52 743f 7d70 0f3f 9f78 003f 85ac 54bd
00000080: 517a f43e ef9b 04be 1b83 4fbc c541 bc3e
00000090: 3edc 94bf abcf 77be 0a76 afbe 277b 0f3f
000000a0: 1d20 2d3d 5b56 d6be 462f f13e 23b8 c1bb
000000b0: d9c4 473e 95c7 02be f444 013e 4e70 99be
000000c0: ac4e dcbe 34ab e6be 9034 843d 98c6 7a3e
000000d0: 2ab4 c03e 0e45 0dbf 9252 c0be c5dd 773f
000000e0: 311f 1e3f cdc2 943e 4463 74bf 0f1b 403f
000000f0: 0642 b5bd 220d c73e c5e6 ffbe 302b c53c
00000100: 45bf 91be c3e9 c9be d82a c73e 490c 34bf
00000110: da55 9a3f 62b7 193f 06e9 f33d 55b9 e63e
00000120: 7772 1f3f 4b75 debe 693a afbd 2a8f 27bf
00000130: ee91 83bf af09 b7bd 6b94 b2be 17b3 27bf
00000140: 7e55 353d 2421 923f 7a94 a4be 325f a23e
00000150: cf59 3abf 9ab9 bfbe 5729 993e 11f6 033f
00000160: 875e 51be 3fa0 0abe c8d4 b13e 6433 8bbe
00000170: 54e8 9cbe 5817 163e 603d 87bc 9e3c c83d
00000180: 4ce6 bcbe cdca 07be d7ac c43e 3a1c 7dbd
00000190: cda3 2cbf c9e5 38be 55b5 60bf 32c4 0c3e
000001a0: d36c c13e 67c1 463e 69da da3e f921 cd3b
000001b0: bc1d 323f 4058 033f e18b fdbe be09 a93e
000001c0: b4ea 63be 098b cf3c 0c2a a0bc 55d2 60be
000001d0: 223b 83be 6592 f63d 2646 13bf ecd9 7ebe
000001e0: 1b63 89bf 9316 463e 7ee9 953e b021 84be
000001f0: da31 6bbe 3977 1e3e 4403 09bf 2a53 323f
00000200: 3f91 f83e c03c b53d 12e5 bdbd 9e8d 293f
00000210: 22a4 813e 21bd fbbe 2008 613e 838b 203e
00000220: 7ddb 5e3e a417 663e b881 293f 0686 48be
00000230: 8d33 043e dd13 53be a182 01bf 2a87 12bf
00000240: d624 8b3e 1525 e3bd 9596 51be 0d2b dbbe
00000250: 6c84 02bf 99dd bbbe de3e 99be f2a8 68be
00000260: eca3 90bd 6018 703d 6ead 51bf 2fda 953e
00000270: 95ec 84be ac2a 533e cca2 073d a474 11bf
00000280: 70df e13b 76a3 adbe 52ff fbbe 4199 c23e
00000290: 2b6c 4f3d 05d8 213e f599 8bbe 2cea 263f
000002a0: 0d48 b1be 0d20 8abe 6a09 e83e 0701 1bbf
000002b0: e15f 9f3e a946 0c3f e138 353d 232c 083f
000002c0: 155b 403f d867 ccbc 4b94 0f3e 8bf3 1f3f
000002d0: 19e7 383e 35a0 8dbe e811 323d b347 efbd
000002e0: fe60 c5bd 6189 233e e74c 39bd 9164 263e
000002f0: e53d d4be fbd1 0f3f 9519 0cbf e93d f03e
00000300: dacf f03d a5b9 213f 03d5 78bf 47e1 d23e
00000310: 7d8d 1e3f 01ab 2c3f a8e9 3fbe a910 cb3e
00000320: df7c 643e ef7a b13d edc0 47bf 1e89 803e
00000330: bc03 9abe b927 42be efd4 bcbc 1dbd 63be
00000340: fef6 6abe 3059 e93d 5b7d bf3e 11f6 66be
00000350: aed8 663f 4db4 dc3d 607c d63e 397b 52bf
00000360: 0240 e4be 6656 4dbe 2bfa c33e ab04 cdbe
00000370: ec19 33be 8a7e 293e 88a2 0f3e 096c 78bf
00000380: ddc7 4e3f dd31 c7bd 37f9 103f deea 2ebf
00000390: 6746 98be c8cb ac3e 41c1 643f 5397 8cbe
000003a0: 4649 72bf ef7d 89be 4794 93be ced1 203f
000003b0: f957 a6be 114b 0bbf 9e65 7abe 185e f73d
000003c0: 59d8 02bf 1d72 543d 08c4 5dbf b3e3 64be
000003d0: 1920 4c3e 6481 5cbf a368 bcbe 64c9 d83d
000003e0: ecd7 46bf 829f b03b 2fba fabe e0da 4bbf
000003f0: d918 56bf b1c7 2ebf 9e8c 55bf fe1d a53e

bias f4 [50]
-1.8266947 -0.13341637 -1.2616711 -1.9190692 -1.1090614 -1.2844648 -0.55662316 -1.1917295
-0.18490465 -0.5076216 -1.4364736 -1.7135693 -1.1669773 -0.9378178 0.25514928 -0.5584498
-1.457053 0.113677785 -1.8087844 -1.68987 0.4341457 0.28108564 -0.70858634 -1.0358002
-1.9600366 -2.3191142 -1.7461033 -0.61634463 -1.714554 -1.5192289 -0.39587307 -0.84150004
0.05341241 -1.5975196 -0.24849735 0.43097654 -0.5507635 -0.42381135 -1.6098273 -0.44621146
-1.9193494 -2.2153955 -0.77076507 -0.9131954 0.3692998 -1.7255707 -1.7597399 -0.96470636
-0.4558355 -0.19056721
00000000: 22d1 e9bf 4d9e 08be 707e a1bf 0fa4 f5bf
00000010: b9f5 8dbf 5869 a4bf db7e 0ebf 988a 98bf
00000020: a557 3dbe 7df3 01bf 5ede b7bf 3d56 dbbf
00000030: 835f 95bf d414 70bf eda2 823e 91f6 0ebf
00000040: b680 babf e6cf e83d 3f86 e7bf a94d d8bf
00000050: 5848 de3e 75ea 8f3e ea65 35bf 1a95 84bf
00000060: 7be2 fabf 5e6c 14c0 5080 dfbf c3c8 1dbf
00000070: 8176 dbbf 1876 c2bf e0af cabe 8c6c 57bf
00000080: f9c6 5a3d 867b ccbf 1776 7ebe f5a8 dc3e
00000090: d6fe 0cbf cdfd d8be d20e cebf d475 e4be
000000a0: 3ead f5bf 0ac9 0dc0 dc50 45bf 2cc7 69bf
000000b0: dd14 bd3e 80df dcbf 283f e1bf fff6 76bf
000000c0: 4563 e9be 0d24 43be

weight f4 [10, 50]
0.08645955 -0.030322067 -0.25626794 0.22532253 -0.22825667 -0.05806927 0.19547169 0.26157174
-0.2864844 -0.060480773 0.20853238 0.14263812 0.24798496 -0.53441715 0.0834294 -0.24470979
0.00912184 -0.6168212 0.21537153 0.08229741 -0.2307731 -0.3134333 -0.29447716 0.1154817
0.18151517 0.51998425 0.18793835 -0.39584816 0.10372593 -0.23646146 -0.49167067 -0.04104828
-0.016278863 0.35504985 -0.6930663 -0.20960297 -0.8161335 -0.07249214 -0.023721084 -0.0032923473
0.33513582 0.34355274 -0.6991487 -0.27233183 -0.060441706 -0.0885672 0.27084744 -0.114037216
-0.15805016 0.14421321 -0.67443424 0.12316151 -1.0888493 -0.38636765 0.014100881 0.20161943
0.37255493 0.19755834 -0.17227457 0.1451289 -0.2750983 -0.6506342 0.015947618 0.18363796
-0.63619316 -0.0047798776 -0.14576656 -0.48734012 -0.079933494 -0.6043414 -0.4533763 -0.117174886
0.4169414 0.15902305 -0.3720536 -0.4836197 -0.031849924 0.40921414 -0.47839534 -0.0881268
0.13307339 0.18717018 0.109464385 -0.64803624 0.10987123 0.002264303 -0.016013145 0.60092646
-0.48532465 0.17121264 -0.5900337 -0.34087715 0.04117137 -0.065650776 0.053364385 -0.78362846
-0.29107758 0.04447913 0.37760997 -0.24324125 -0.32988405 0.31724256 -0.40109357 -0.19155486
0.25334522 -0.36314374 0.366856 0.38326758 0.22360653 0.07930981 -0.42357203 0.17647344
0.031587496 0.3626755 -0.7695237 0.17971976 -0.37455398 -0.6447998 -0.045175895 -0.11809104
-0.14919196 -0.38900596 0.27474752 -0.28493726 -0.7965493 -0.43183252 -0.4389998 0.059410665
-0.050362036 -0.63551426 0.05550131 0.30030477 0.20833796 -0.41602007 0.3243572 0.23225099
0.21748377 -0.12172712 -0.24352856 0.015998198 -0.21205887 -0.26233646 0.13876988 0.0856552
-0.14730753 -0.4400672 -0.0689979 0.264982 -0.05153848 0.4269128 0.12150558 -0.587051
-0.22177446 0.41630846 0.12329475 0.25969172 -0.22549213 -0.17215498 0.19296895 -0.010760661
0.09835323 0.1396787 0.23405433 -0.85920215 -0.1672906 -0.59499866 0.21231276 -0.29853565
0.29379344 0.24620071 -0.482954 -0.3418934 -0.48997936 -0.96691823 0.25755715 0.19621293
0.2385919 -0.30323255 0.014762946 0.091652855 0.022474108 -0.16722497 -0.7984799 0.04131857
-0.79994386 -0.6486695 -0.19972497 -0.53688055 0.14003511 0.36376232 0.1558264 0.3458826
-0.108647145 -0.5305286 -0.1803214 0.11128394 0.039842177 -0.28426605 -0.29199582 0.3925435
-0.44183764 0.10851281 -0.10136552 -0.023837175 0.21684685 -0.41719502 -0.020391844 0.23493916
0.5031025 0.009645328 -0.6367963 -0.68534786 -0.5366298 0.066478096 -0.08616335 0.0039303536
-0.25563136 0.06023973 -0.21556701 -0.15608145 0.16125603 0.18776582 0.18956307 -0.0647394
-0.79036295 -0.33403912 0.0541632 -0.036370788 -0.5108374 -0.33791965 0.044245142 0.24269503
0.025530905 -0.29727158 0.11973584 0.13938124 0.036918487 0.036112204 -0.63974357 0.30251506
-0.4046428 -0.21208303 0.4751291 0.0076477574 0.26230612 -0.06634173 -0.20436254 0.17833553
0.18150173 0.5411793 -0.24022202 0.15162039 -0.30064675 0.15919834 0.22399816 -0.08907013
00000000: b411 b13d fc65 f8bc 8d35 83be f3ba 663e
00000010: 1ebc 69be 0bda 6dbd bb29 483e bbec 853e
00000020: 15ae 92be b0ba 77bd 8389 553e ba0f 123e
00000030: c5ef 7d3e 90cf 08bf 09dd aa3d 3495 7abe
00000040: c573 153c ffe7 1dbf 5b8a 5c3e 8b8b a83d
00000050: c94f 6cbe 547a a0be b6c5 96be ab81 ec3d
00000060: 1ddf 393e b01d 053f e972 403e 9cac cabe
00000070: 436e d43d f422 72be 42bc fbbe 3e22 28bd
00000080: 405b 85bc 18c9 b53e cb6c 31bf 29a2 56be
00000090: 20ee 50bf c276 94bd b852 c2bc 6cc4 57bb
000000a0: ec96 ab3e 25e6 af3e 69fb 32bf 146f 8bbe
000000b0: b991 77bd b862 b5bd 84ac 8a3e 588c e9bd
000000c0: e7d7 21be a1ac 133e b9a7 2cbf 1a3c fc3d
000000d0: 6a5f 8bbf fbd1 c5be 6207 673c 5375 4e3e
000000e0: 85bf be3e bc4c 4a3e bf68 30be ac9c 143e
000000f0: afd9 8cbe f78f 26bf 94a4 823c 970b 3c3e
00000100: 8edd 22bf 85a0 9cbb d443 15be a584 f9be
00000110: 2cb4 a3bd 1eb6 1abf f020 e8be 63f9 efbd
00000120: 5879 d53e f0d6 223e cf7d bebe 009d f7be
00000130: 1175 02bd 8484 d13e 3cf0 f4be d37b b4bd
00000140: 6444 083e 8aa9 3f3e dd2e e03d b4e5 25bf
00000150: 2b04 e13d b364 143b 002e 83bc 51d6 193f
00000160: 797c f8be 5e52 2f3e 730c 17bf 7387 aebe
00000170: 4fa3 283d ea73 86bd 9d94 5a3d e09b 48bf
00000180: 1f08 95be c02f 363d 1856 c13e 3c14 79be
00000190: 90e6 a8be 9e6d a23e 235c cdbe f526 44be
000001a0: 77b6 813e faed b9be 8dd4 bb3e a63b c43e
000001b0: 1cf9 643e 2f6d a23d 6fde d8be 74b5 343e
000001c0: e461 013d 9ab0 b93e 81ff 44bf 7508 383e
000001d0: 8ac5 bfbe 9a11 25bf 5c0a 39bd b7d9 f1bd
000001e0: c7c5 18be ca2b c7be b5ab 8c3e 4ce3 91be
000001f0: a8ea 4bbf 2719 ddbe 95c4 e0be 9958 733d
00000200: 6c48 4ebd 10b1 22bf 5755 633d 8cc1 993e
00000210: 8c56 553e 9500 d5be 2612 a63e 34d3 6d3e
00000220: 11b4 5e3e 114c f9bd 8d5f 79be a70e 833c
00000230: f625 59be f750 86be b119 0e3e fe6b af3d
00000240: c9d7 16be 7d50 e1be c54e 8dbd b9ab 873e
00000250: 031a 53bd 5194 da3e ebd7 f83d f948 16bf
00000260: d818 63be 6226 d53e f581 fc3d 50f6 843e
00000270: 69e7 66be 6549 30be a799 453e 7c4d 30bc
00000280: 6b6d c93d ef07 0f3e f0ab 6f3e acf4 5bbf
00000290: 3a4e 2bbe d551 18bf 8468 593e aad9 98be
000002a0: 186c 963e 0a1c 7c3e bf45 f7be a70c afbe
000002b0: 93de fabe f487 77bf 88de 833e 0bec 483e
000002c0: 6f51 743e 4c41 9bbe 49e0 713c 7eb4 bb3d
000002d0: 9f1b b83c 063d 2bbe 2e69 4cbf a93d 293d
000002e0: 1fc9 4cbf 340f 26bf b484 4cbe 0171 09bf
000002f0: 5d65 0f3e 0e3f ba3e f590 1f3e 8617 b13e
00000300: 6582 debd b9d0 07bf 2ca6 38be d6e8 e33d
00000310: 8d31 233d 528b 91be 7a80 95be 76fb c83e
00000320: 8b38 e2be f73b de3d ba98 cfbd 2e46 c3bc
00000330: 1a0d 5e3e 969a d5be cc0c a7bc e493 703e
00000340: 53cb 003f 7007 1e3c 1505 23bf f572 2fbf
00000350: 9260 09bf ab25 883d 6976 b0bd 32ca 803b
00000360: 1de2 82be efbd 763d 99bd 5cbe d1d3 1fbe
00000370: 4d20 253e af45 403e d21c 423e 1796 84bd
00000380: 3a55 4abf 2d07 abbe 3bda 5d3d 89f9 14bd
00000390: 3dc6 02bf ce03 adbe 653a 353d 0c85 783e
000003a0: 3026 d13c fb33 98be 1038 f53d f5b9 0e3e
000003b0: d737 173d 64ea 133d 3cc6 23bf 41e3 9a3e
000003c0: 572d cfbe 4b2c 59be 1f44 f33e 0a9a fa3b
000003d0: fd4c 863e 2cde 87bd 6a44 51be 979d 363e
000003e0: 97db 393e ba8a 0a3f c3fc 75be 6042 1b3e
000003f0: 5fee 99be e404 233e c65f 653e 666a b6bd

bias f4 [10]
-3.2127857 -0.9152017 0.3015651 -2.9010274 0.7981262 1.217264 -2.96561 -2.0293653
1.0638384 1.4253899
00000000: 489e 4dc0 a94a 6abf be66 9a3e 6faa 39c0
00000010: 0052 4c3f 4fcf 9b3f 8ecc 3dc0 1fe1 01c0
00000020: db2b 883f 2d73 b63f

weight f4 [1, 10]
-0.14823736 0.04635615 0.028637763 -0.03713706 0.11943062 0.026562221 -0.08068038 0.13314961
0.10649489 0.069128275
00000000: 89cb 17be f2df 3d3d be99 ea3c 081d 18bd
00000010: 0a98 f43d 0499 d93c c13b a5bd 5f58 083e
00000020: fe19 da3d 2093 8d3d
