MathorCup2021/Results/best_B40.npy (npy, 1088 bytes, 1 tensors)

array f8 [120]
1.6792426512796566 -3.3507530374555348 -1.4994695547660644 -5.642507058084207 -0.5746419540312935 2.2485969310592493 0.7149808954121557 -2.108672950933909
2.877961305832839 6.240030965524767 1.6591306948170612 1.0386734957618915 0.09526299383794998 1.9401692927248675 1.841324846865574 4.2545301490732355
2.5509391547439413 3.645451859632061 2.473080123208268 -0.8673332626005629 -0.9197870949124115 -6.866003036673547 -4.536502509887368 -0.6962645014359183
3.8287179843921915 -3.6535110891891316 -2.2532177908657056 5.23452606028927 4.647482064602465 -2.1749670376863977 2.5732511486325396 3.4125277953152593
2.1026896817731395 5.3284006463312465 -1.332381284650419 -2.7899713880521584 3.523984838732897 -3.743663379686128 -0.133537553437794 -5.146732630617613
3.844132744787981 -2.7889261128461897 -4.09345468577275 -0.23274368287113917 -2.4416845273414194 -3.751956381108842 -1.2605503379273564 0.20498400387697077
6.789230276747 -2.350851571997878 0.5724696529386355 -0.5785127767173197 2.7348403150741616 -2.3360521304250157 -4.738313389804822 -1.5072038748765786
1.136778295002809 6.0003052453778905 4.3406002607999525 0.4336518799397735 -4.114983796164073 0.9770675790752835 3.693800637192189 -1.9514764451190818
2.4782043714229025 -2.0119231251691607 0.9158445772503842 2.934057125877819 -2.787190995022691 -3.3005743161945302 0.14886556379639776 3.239890436061501
-4.485887987747703 5.14566367619687 3.4941087521442435 3.4897704415121376 4.3441583624417115 -1.8043143697945667 4.3630801051072305 -0.7494862345315787
3.7478861777735917 -6.073400996720619 -1.7910023378066984 -1.0426518244527399 -0.3348745967661361 2.9365437513465666 -2.2304127362783337 -2.4125952550437577
-3.535896684554266 1.6852468732226331 -4.4122006525301565 -0.853715171859271 1.456419798990628 -0.3038112450101221 -2.901591290677024 -2.788705911134346
-2.994902736246092 0.5403877180799901 1.615195937122754 -0.8947351275368524 3.4815788276831396 3.106530424839429 0.717101364983368 4.097360148228897
-1.637114018700041 2.819756530651957 -0.8650763962560112 3.7419295927670535 -6.875940906072551 -2.3221916286812876 1.5695391382120438 -1.9912111672971775
1.3467158245538045 3.4360446187557443 -2.765173624024936 0.4346023584924456 2.197763898244791 -0.3256968924769188 -3.5633827001726206 3.420444833011651
00000000: 19b6 d48a 2dde fa3f e4c0 c69b 57ce 0ac0
00000010: 3b16 b1c9 d3fd f7bf f1ae c75e ed91 16c0
00000020: 862a ef85 7763 e2bf 9648 4663 20fd 0140
00000030: 90eb 619d 1fe1 e63f 82c4 91ec 8fde 00c0
00000040: dca4 bd93 1006 0740 20d3 6bad caf5 1840
00000050: ed76 a0a0 cc8b fa3f 214f 7819 689e f03f
00000060: 5694 0dd3 2763 b83f e04e cff4 ee0a ff3f
00000070: fb98 e90a 1176 fd3f 5376 288d a304 1140
00000080: 5bb0 9dc9 5268 0440 c018 22aa e229 0d40
00000090: 8c89 4c3b dec8 0340 d746 b3af 31c1 ebbf
000000a0: 1fd0 7d58 e56e edbf 90ff 0280 c976 1bc0
000000b0: aec0 f8e9 6025 12c0 740e e17d cc47 e6bf
000000c0: 6f92 04e5 36a1 0e40 1220 9d05 643a 0dc0
000000d0: c244 940c 9706 02c0 3102 7c99 27f0 1440
000000e0: 49db d089 0597 1240 baed 451e 5566 01c0
000000f0: 672b beb2 0496 0440 678f 6c5f db4c 0b40
00000100: 79d1 c6f7 4ed2 0040 70e9 4f42 4850 1540
00000110: 2a04 b609 6f51 f5bf 8fad e384 dc51 06c0
00000120: 38a9 8ff6 1e31 0c40 c5e0 37c9 05f3 0dc0
00000130: 86ce 6630 c217 c1bf e808 2714 4196 14c0
00000140: d9c6 22ab c8c0 0e40 0d14 6d7e b84f 06c0
00000150: 2a35 cc95 b25f 10c0 1a1d 2485 8bca cdbf
00000160: 19a5 c0e5 9188 03c0 440c 07b5 0104 0ec0
00000170: 83c1 c5d4 362b f4bf af67 6d74 ea3c ca3f
00000180: ca90 4efb 2b28 1b40 3ed9 db44 8bce 02c0
00000190: 785d aae0 ab51 e23f 9035 0a3a 2d83 e2bf
000001a0: f634 88f5 f3e0 0540 9d69 6f19 3cb0 02c0
000001b0: 77a4 dd6c 08f4 12c0 77fd 6fcf 811d f8bf
000001c0: 6e6f fd6f 3e30 f23f 43a9 ab04 5000 1840
000001d0: 5894 9450 c65c 1140 fc2c 8cd0 f3c0 db3f
000001e0: e560 f04f be75 10c0 0f87 433a 2344 ef3f
000001f0: ae79 3559 e78c 0d40 7536 6b5d 3f39 ffbf
00000200: 5b86 40d0 5cd3 0340 5e57 c526 6b18 00c0
00000210: 8f4c 7049 994e ed3f 8bed 41f1 f278 0740
00000220: 11a0 daca 2a4c 06c0 a695 d081 9367 0ac0
00000230: dec8 00dc 060e c33f 010f 4cad 4beb 0940
00000240: 2195 e39e 8cf1 11c0 3aec d5db 2895 1440
00000250: e203 194a eff3 0b40 a5bc e6c3 0ceb 0b40
00000260: 0954 bd0c 6b60 1140 3a87 9fbe 78de fcbf
00000270: 210e 6545 cb73 1140 acb0 438e cafb e7bf
00000280: 1a58 95bf abfb 0d40 ada2 81a1 294b 18c0
00000290: 6e07 3f11 f2a7 fcbf 5f3a f2ad b3ae f0bf
000002a0: 9fca 57dc 956e d5bf 0a74 7aa6 0a7e 0740
000002b0: b42d f7a1 e2d7 01c0 872e b7bd fe4c 03c0
000002c0: 2e90 7133 8449 0cc0 e8d6 e26c c5f6 fa3f
000002d0: 0c07 88ed 17a6 11c0 c081 e77a a251 ebbf
000002e0: 1596 ded8 7e4d f73f e16e 5eb8 a471 d3bf
000002f0: ad87 9e7e 7536 07c0 06df 730b 454f 06c0
00000300: e505 d790 8ff5 07c0 3809 0a2f db4a e13f
00000310: 5630 e9b1 d7d7 f93f 2b4d eb8f aba1 ecbf
00000320: c6c2 1a00 46da 0b40 f5b6 959f 2cda 0840
00000330: 24a8 d08f 7ef2 e63f ab4e f260 b263 1040
00000340: a83c 2278 9e31 fabf 1ea9 0e83 dc8e 0640
00000350: 5fc1 ceb1 b4ae ebbf e7f3 46c8 78ef 0d40
00000360: a93d 23a7 f680 1bc0 4ed9 6134 d993 02c0
00000370: a29a 4612 d51c f93f b38a af3d 00dc ffbf
00000380: a06d 77e4 258c f53f c038 09f6 047d 0b40
00000390: 5997 5759 131f 06c0 5354 1f69 86d0 db3f
000003a0: a953 1a3d 0595 0140 7038 66c7 37d8 d4bf
000003b0: 17fd 02ca ce81 0cc0 3175 3c2e 125d 0b40
