MathorCup2021/Results/best_B45.npy (npy, 1208 bytes, 1 tensors)

array f8 [135]
0	0xc0034f71b982f0a6	-2.4137911313137748
1	0xc01182104c8a9cd2	-4.377015300712815
2	0x4004bfc6604c1225	2.593640091248988
3	0xc013267e6cd292ab	-4.787591648437835
4	0x3fc568341960a8a5	0.1672425388254101
5	0xbff844cf19330d59	-1.51679906695866
6	0xc015c05a50f64f60	-5.437844529183934
7	0xc00deb98cf65604a	-3.7400375559628047
8	0xbfe7ec903a3b62a7	-0.7476273667662853
9	0x3fd11d7a26467bd5	0.2674241422445765
10	0xc012caa2eacb2fe9	-4.697887104655799
11	0x4009751c0c743ee6	3.182182404801881
12	0x3fe20adc5eebb62b	0.5638257841034763
13	0x3f834d5b4ab6651d	0.009424889771980244
14	0xbfe6c986e4ce517c	-0.7121004551759564
15	0x3fe50add84187f07	0.6575763301843559
16	0x3fc40ace9a4c56c0	0.1565798047455953
17	0x400c56d134c0ec4f	3.5423912164092495
18	0x400788fd09ab3955	2.9418888812426
19	0xc00ac4bac0d99e02	-3.3460593286906724
20	0xbffc30ae9b3e748c	-1.7618852676598946
21	0x4016f0fec3c94c51	5.735346850548994
22	0xc001f6e47101a85a	-2.245552904952132
23	0x3feceed28afc1a3f	0.9041531290575405
24	0xc00a117c3f21af6a	-3.258537762847415
25	0xbfd35d9f4e6975d1	-0.30258925111215
26	0xc006474d09101d04	-2.784814902118912
27	0x4016128de7d621f7	5.518119451946851
28	0x40075c7415ebe702	2.9201432907692615
29	0x3ffa740d4bd8f173	1.6533329928198242
30	0x3ffc6e792d3a78e3	1.7769710318312313
31	0xc00642ec87fbf441	-2.7826777099385542
32	0xbffd66e2b2022198	-1.8376185372781944
33	0xbff4db4b3b7449e3	-1.3035385439330802
34	0x3ffcea4338671af0	1.8071930125458344
35	0xc0064f8433465ef8	-2.7888263707972065
36	0xbff9796d82618bee	-1.592145451832717
37	0x3ff0774a5c935540	1.029123651145099
38	0x3ffe93fb5497507d	1.9111283592547175
39	0xbffd02665504d195	-1.8130858727500698
40	0xbfa2e2ffd65e506a	-0.03688811771203933
41	0xc00651e3145c10be	-2.789983901080716
42	0x4016774227ca29c5	5.616463300432263
43	0x40068d31cdf10fff	2.818942650717872
44	0xbffb624f36693627	-1.7115013242177015
45	0xc00f1bbb5e7e2ced	-3.888540971971102
46	0xbff7f5fcd6ef3eee	-1.4975555797463431
47	0x3fdfdfa7ed148100	0.4980258765445029
48	0x4014925d90559f27	5.142935042596753
49	0x3fff647886bf5cbc	1.962029005391556
50	0xbff837c21ec0da2f	-1.5136128617574618
51	0x4017d1dc30e75e4b	5.954941524621584
52	0xc00bef6c148447b2	-3.491905365263812
53	0xc0064e990ad1187f	-2.7883778424321117
54	0xbfe04c9ea5b52f83	-0.5093529926757444
55	0x4007f18b0d7e1e87	2.992941003238062
56	0x400802ed2a65e472	3.0014289200158197
57	0x40020d832d149c5b	2.2565978547968775
58	0x400ea84bdd6ce4b9	3.8321759508949893
59	0xbfff1c8e322f50ed	-1.9444715462059847
60	0x3fc60f1f10a388d3	0.17233646690789914
61	0xbfec58bff7687c2f	-0.8858337242307978
62	0x400b39e509d6b4bb	3.403268887390906
63	0x400282664e9515e3	2.3136716975447924
64	0xbfd04ee78bc514d9	-0.2548159470500884
65	0x400a8e1fa7c49d69	3.319396315276823
66	0xc013d4fde6fc5863	-4.957999810363705
67	0x4013c44ab734eff4	4.941691267591512
68	0xbff4f44e480df87a	-1.3096449675208803
69	0x4011636d8c557ba3	4.347097580640283
70	0xbfea0abc3a791ed3	-0.8138104574254278
71	0x400ae8ed2c267c7d	3.363733620571621
72	0x4012f5a31777f072	4.739879957862387
73	0x3feb8645c18affa5	0.8601406841407778
74	0x4007e9bcca05328c	2.989129617961515
75	0x400bdb3c28b3e5b9	3.4820483379268947
76	0xc011fb1c5fe1f146	-4.495225427785334
77	0x3fc63b3046b68b34	0.17368129208360872
78	0xc0197f26847590cd	-6.3741703697925916
79	0xc00c7209d483e016	-3.5556828119988593
80	0x3ff5a1b3b60b3ed5	1.3519780264941137
81	0xbfae6827cca15a9e	-0.059388393143924065
82	0x400888565b595be6	3.0665709625859447
83	0x400ba9adc05e5faa	3.457850935821587
84	0x4004347ea60d1a4a	2.525632188105452
85	0xbff81abf5cb36c29	-1.506530153382082
86	0x3ff1229849b16178	1.070946014273515
87	0x4009db4761f763d4	3.232069745409243
88	0xc00daac383bcca8f	-3.708380727004005
89	0xbffaa36070642942	-1.6648868932994252
90	0x401509084cb97637	5.258820723361672
91	0xc00c7340960fb84a	-3.5562755321070982
92	0x400cc4d887e723f5	3.5961161248601408
93	0x3ff341a6200484e0	1.2035275698365737
94	0x4001425af5112193	2.1574000497677814
95	0x3fc862ad6321f9d2	0.19051139202561146
96	0x401a64be19262a9b	6.598381417231077
97	0xbfd826509c91e6ad	-0.3773385552409348
98	0x3ff905e900f11428	1.56394291274888
99	0x4017e9712869db36	5.977970725499111
100	0xc004e02b5e7892fc	-2.609457719854957
101	0xbfe07bc70cd6792f	-0.5151095629442234
102	0xbff0f50b18ec9619	-1.0598250363922317
103	0xbfff9e7b192beb4a	-1.9761916144622824
104	0x3ff1b83724e2b076	1.1074744644966166
105	0xc014b2e0634aed87	-5.174684096763833
106	0xc010b7ded63abe39	-4.17956099256076
107	0xbff61c10c5d2b554	-1.3818519332374608
108	0xc0066e9eaae37850	-2.8040135718029333
109	0x3ff59568b57018d9	1.3489768111626772
110	0x3ffb0145c9b3976c	1.6878106955495822
111	0x401230402d151c16	4.547119812406001
112	0x400d3ffa9ff97727	3.656239747810918
113	0xbfd816786f5cddb9	-0.3763714873816429
114	0x3fb29e80d18b8f1d	0.07273106685493898
115	0xbfe00e3be67e5eaf	-0.50173754709518
116	0xbfe6df390c0281a5	-0.714748881775496
117	0xc00e41a80622cf3d	-3.7820587615368866
118	0x3fe7f7a8b0f72230	0.7489818054537576
119	0xbffa53e3e9117691	-1.645481024191586
120	0x3ffab3d49cfb0e91	1.6689039356287234
121	0xc00364a813734bb3	-2.4241487044868903
122	0x3fcb72cf887f50b1	0.2144412437907071
123	0x401bc016a63c0851	6.9375864004269525
124	0xc00ca6a1241867f5	-3.581362039561095
125	0x40047151d0ce43ee	2.5553318322131338
126	0x3fe77a450fb9c55c	0.7336755091802547
127	0x400780867efe1645	2.9377565308848568
128	0x400df8e2e0b2a864	3.746526484920695
129	0x40154397a0d080e1	5.3160081031093975
130	0x40146fc4e9cf7671	5.109149602210537
131	0x400561e0863346cb	2.6727915272138936
132	0x40013ffab3519ca9	2.1562398919373504
133	0x4014c31d6d6c7989	5.1905419442613345
134	0x4003ecf91c14bcb2	2.490709514029356
