MathorCup2021/Results/net_Au.pkl (torch, 101541 bytes, 5 tensors)

weight f4 [128, 60]
00000000: 2e09 ffbc ab01 4ebd 1ae0 263c ebf2 9c3c
00000010: 0af7 0a3d a5db 78bd 95b1 93ba 117d 843c
00000020: a64d ea3c 62e2 483d b8dd 113d 4b2d 213c
00000030: eb24 2e3d 5e37 5a3d 9e7c 6bbd d367 c4bc
00000040: fd9c a0bd 9083 a23d 5147 babb d7f6 113c
00000050: 171d 6e3c c953 38bc da73 363c 368a a33c
00000060: fe0e aa3c 8bbd 303d ed21 3a3c a772 303c
00000070: d4cb b0bc 17cc 893c 1de0 03bb 661b c7bc
00000080: 2989 143d d038 2bbd e6b7 0d3c b884 14bd
00000090: 1326 ab3d d851 73bc d455 a73d b24b 4cbc
000000a0: 589f 0fbd 5c14 95bd 5aa5 78bc 8a3f 29bc
000000b0: 0841 613d 5e38 66bc c8c3 e53c e924 93bd
000000c0: f050 3ebd 18e1 89bc b71b b73c 8956 213d
000000d0: 889f 7e3d 0dd2 863d 66d3 eebc 47a8 803c
000000e0: 365f 9bbc 9958 5abc 93b4 38bd c1f5 ab3c
000000f0: 5008 9e3b 51a5 4f3c 1a82 6c3c 36dd 38bb
00000100: 44f6 e0bc c28e 893c a27f 9e3c b57d 3c3d
00000110: 313a c2bd 0d1d 43bc 096e 28bd 4c5c e23c
00000120: 3e74 cd3b 09fa e9bb 4ba1 d5ba c368 ae3c
00000130: b114 81bc df7f 92bd 3031 9dbd 1756 993c
00000140: 284b 123d 8933 ca3b 3698 f5bb dff0 ebbc
00000150: 706c 02bc 02d3 073c 0a04 d63c d1db cfbb
00000160: f634 a6bc 0d88 49bc 40cd 8abc c907 57bd
00000170: d11c 21bd d022 383c 0b5a 953d 1dc9 0a3d
00000180: a114 75bc eefe ddbc b494 07bc 4e93 383c
00000190: c621 cabb 685c 6c3c db4f e63c 6445 d83c
000001a0: 104e 9ebd 4266 3ebd 1fd0 463c bcad bcbc
000001b0: 3412 df3c def2 c13b eac2 76bd 6c29 b5bc
000001c0: 4c49 793c cff3 debc 8585 343d 6efc 9cbc
000001d0: b10e aa3c 018f 0a3c 423c b43c 7b01 3c3c
000001e0: c20d d238 039f 08bd 3a48 b4bc 7ae8 c53a
000001f0: 200a 263d ebac 3f3d 9e23 a83b 73c1 03bc
00000200: 038c 80bd a957 a93b 44bb a73c a871 863c
00000210: 7b91 363d 27b3 903c 9c3a 9f3c 45fb 3ebd
00000220: ad48 95bc 8ab3 b6bb 0c16 e8bc 8895 4ebc
00000230: f572 0dbd 6dd3 e1ba 55a4 6c3c e9e3 3ebc
00000240: 3ab0 0e3c f696 17bc 7ebe 3ebc 0766 3dbd
00000250: 6dba 1f3d ae83 7c3c b6a5 72bd 20bd 01bd
00000260: 2741 e6bc 44d6 2b3b 94a8 1e3d ffa5 a4bc
00000270: 35d0 09bc 4614 d43c f74e fa3b 7060 273d
00000280: 641f 1fbc d569 16bc b3cb fd3c 52e9 e7bc
00000290: fcd0 57bd 9197 d43d af33 dd3c 38f5 90bc
000002a0: a655 ee3c f61f d2bc d485 02bd c1f9 0fbd
000002b0: d972 f83a de49 2a3d 5cd1 0cbd f70a 04bc
000002c0: d649 22bb 1a6e 54bc 6a88 43bc fa85 d23b
000002d0: d80f 61bd a16c 35bc f6a3 953a 53cf 773d
000002e0: 0e49 0f3c 0a68 063d 96b0 2abd 3c5c fc3c
000002f0: 956f 633d 297f 50bd 5e53 bfbc d61c 193d
00000300: 3f38 d43c c939 acbd ad9b 823d 08f2 1d3d
00000310: 23f0 bb3d ac2b 36bc 0fa5 a5bc e429 393b
00000320: 0ceb b5bd 506b 3e3d 1d60 583c 9e97 953c
00000330: d566 5dbd 837e 563d 8306 e83c 5f23 eb3c
00000340: f47f 95bb a16d a8bd 4556 8ebd a8d1 48bd
00000350: 09af d53d 37d7 1739 4429 803c decb 3e3d
00000360: fedc 8f3c 20d5 71bd 0eda 48bd cf3c 0d3c
00000370: ff1a 0bbb 74f4 143d 90a0 513d 03d2 cdbc
00000380: c36a 763c 63c5 373d f2b1 28bb 337d 95bd
00000390: a8ec a33c 0cbb 0bbd af71 8fbc 43ca 06bc
000003a0: 759b b83c 6ea5 c9bb 19d3 b53b cab3 283d
000003b0: 6c45 42bc 9834 0e3c acdd 303d 5d40 383d
000003c0: 8646 663b b8f9 1abc 7d38 a0bc 81ca a7bc
000003d0: 00ea 7fba 5761 4ebc c2ab 673a 3228 093d
000003e0: 9dd7 d7bb a243 da3c 1102 ffbb 19b1 b2bc
000003f0: e437 933b 3370 2b3d d944 c03c 0d44 f83c
-0.031132307 -0.05029456 0.010185266 0.019158801 0.033927 -0.060756344 -0.0011268134 0.016172918
0.028601479 0.04904402 0.035611838 0.009837459 0.042515676 0.05327546 -0.05749189 -0.023975288
-0.07842443 0.0793525 -0.005684771 0.008908949 0.014533303 -0.011250445 0.01113602 0.019963365
0.020759102 0.043149512 0.011360628 0.010769523 -0.021581568 0.01682095 -0.0020122596 -0.024305057
0.03626362 -0.041802227 0.008649802 -0.036259383 0.083568715 -0.014851056 0.08170667 -0.012469219
-0.03506407 -0.07279274 -0.015176142 -0.01033009 0.05499366 -0.014051525 0.028047457 -0.071847744
-0.046463907 -0.016830966 0.022352083 0.039389167 0.06216386 0.06583033 -0.029153537 0.01570524
-0.018966299 -0.013326787 -0.045094084 0.020991208 0.0048227683 0.012673692 0.0144353155 -0.0028208024
-0.027461179 0.016791705 0.01934797 0.04601832 -0.094837554 -0.011908782 -0.041120563 0.027631901
0.0062699607 -0.007140402 -0.0016298679 0.021290189 -0.015756937 -0.07153296 -0.076753974 0.018717809
0.035716206 0.0061706943 -0.0074949516 -0.02880138 -0.007960424 0.008290054 0.026124973 -0.006343343
-0.020288926 -0.012300503 -0.016943574 -0.05249766 -0.039334122 0.011238769 0.07292565 0.033883203
-0.014958532 -0.027099099 -0.0082752 0.011265589 -0.006168577 0.014426328 0.02811425 0.026400276
-0.07729733 -0.04648424 0.012134581 -0.023032062 0.02723036 0.0059188446 -0.06024448 -0.022114478
0.015215229 -0.027215866 0.044072647 -0.019163337 0.020758959 0.008456946 0.02200139 0.011474962
0.00010016143 -0.03335477 -0.022007097 0.0015099191 0.040537 0.046795767 0.005131199 -0.008041727
-0.06276705 0.0051679206 0.020475037 0.016411617 0.044572335 0.017663551 0.019437127 -0.046626348
-0.018223131 -0.005575602 -0.028330825 -0.012608893 -0.03453346 -0.0017229147 0.014443477 -0.011651018
0.008709008 -0.0092523005 -0.011642097 -0.04623988 0.03899615 0.015412254 -0.059240066 -0.031674504
-0.028107239 0.0026220242 0.038734987 -0.020098684 -0.008411457 0.025888573 0.007638808 0.040863454
-0.009712074 -0.009180506 0.03098092 -0.028309498 -0.052689537 0.103804715 0.027002184 -0.017695054
0.029093575 -0.025650006 -0.03186591 -0.035150293 0.0018955126 0.04157435 -0.03437935 -0.008059255
-0.0024763248 -0.012965703 -0.011934379 0.0064246627 -0.05494675 -0.011073262 0.0011416662 0.060500454
0.008745445 0.032814063 -0.04167231 0.0308057 0.055526335 -0.05090252 -0.023355182 0.037381016
0.025905726 -0.08409459 0.06377349 0.038560897 0.09176662 -0.011118811 -0.020220308 0.0028253729
-0.08882722 0.04648906 0.013206509 0.018260773 -0.054053146 0.052366745 0.028323418 0.02870339
-0.0045623723 -0.08224035 -0.06950048 -0.04902807 0.10433776 0.00014480656 0.015644677 0.04658114
0.017561432 -0.059041142 -0.04903608 0.008620455 -0.0021225808 0.03636594 0.051178515 -0.025124555
0.015040102 0.044865977 -0.002574083 -0.072992705 0.020010307 -0.03411393 -0.017510263 -0.008226934
0.022535065 -0.006153754 0.0055488464 0.041187085 -0.011857372 0.0086795315 0.043180153 0.044983257
0.003513725 -0.009458952 -0.019558186 -0.020482304 -0.0009762347 -0.01259645 0.00088375446 0.0334856
-0.0065869824 0.026643578 -0.0077822288 -0.021812962 0.0044927467 0.04185505 0.02347033 0.030305887

bias f4 [128]
00000000: d961 a4be 0c74 8cbe 1e81 31be a9cd 04be
00000010: ad2a 35be 9abf 89be b3d5 6dbe ab5d 95be
00000020: 63d1 6cbe 5a7d 8cbe 893f 9cbe dca2 a9be
00000030: 7069 a4be 741d 7cbe a9c0 8cbe c7fb 90bd
00000040: 4203 83be d715 70be c752 8abd ff2c 89be
00000050: 7aea f6bd 78e0 36be 85cb c5be 4c11 e0bd
00000060: 323d c5be ca40 bcbd e580 5cbe 52fd 03be
00000070: 537b 97be 3180 6dbe 2b3e 71be 28c3 17be
00000080: eb98 8ebe fcf0 77be 776a 70be 4d7b 9ebe
00000090: ea31 d4bd b9a0 81be 2242 4cbe d4a5 61be
000000a0: 7205 fcbd 3954 5fbe 2295 94be abf0 f8bd
000000b0: 5c2e 8abe 9366 08be 16df 3ebe 519c 6cbe
000000c0: 54e6 61be a0f6 6fbe 184f 03be 3729 43be
000000d0: aa84 c3be 25be 75be 232e c4bd f235 01be
000000e0: 3d1d a6be 95e4 79be 2656 b0be 8c25 e2bd
000000f0: 5351 51be 8f23 51be 3654 c1bd 1cfa 79be
00000100: 4b0b 6fbe a96b 03be 220a 21be cf08 34bd
00000110: 7139 87be bc6a a7be efff 76be 185d 95be
00000120: cab3 5bbe 1de0 41be 463b adbe dd68 80be
00000130: fda4 84be 147d 7ebe 82c7 23be cc29 7bbe
00000140: dd90 8ebe 56dd 49be 3636 58be 2b88 82be
00000150: 2aca dfbd 21e3 babe cdb1 b1bd ef5b 82bd
00000160: bdd9 88be 4832 85be fe8c 3cbe 54cc 36be
00000170: 15d1 12be 7afa 81be 80f2 98be ec8e 82be
00000180: d6ba d4bd 141d 5bbe 77ef 57be bdb1 82be
00000190: 0938 a1be 2298 99be b408 bdbd 16de 73be
000001a0: 7df6 1fbe 6815 7dbe d634 94be da24 9cbe
000001b0: b932 5cbe 1ec9 85be 2c59 92be d5b4 4cbe
000001c0: 6031 6dbe dbd5 acbe 5697 a3be 976c 55be
000001d0: a233 62be 85de 7cbe e0e6 9fbe f44a 89be
000001e0: 3f98 a5be 4768 4bbe b034 8ebe b460 a4be
000001f0: 4b91 8bbe 1388 a6be 779f 75be 3841 ebbd
-0.32105902 -0.27432287 -0.1733441 -0.12969078 -0.17692061 -0.26903993 -0.23226051 -0.29173025
-0.2312675 -0.27439386 -0.30517223 -0.33132064 -0.32111692 -0.2462061 -0.27490738 -0.07079273
-0.25588423 -0.23445831 -0.0675407 -0.26792142 -0.120564416 -0.17859066 -0.38631836 -0.10940799
-0.3852325 -0.09192045 -0.21533544 -0.12889603 -0.29586276 -0.23193432 -0.23558871 -0.1482054
-0.27851042 -0.24213022 -0.23478113 -0.30953446 -0.10361083 -0.25317934 -0.19947103 -0.22035915
-0.12305726 -0.21809472 -0.2902003 -0.12155279 -0.26988494 -0.13320379 -0.18639788 -0.23106505
-0.2206052 -0.23433924 -0.1282314 -0.19058691 -0.38187152 -0.23998316 -0.095791124 -0.12618235
-0.32444182 -0.24403603 -0.34440726 -0.11042318 -0.20441179 -0.20423721 -0.0943989 -0.24411815
-0.23344152 -0.12834038 -0.15726522 -0.043953713 -0.26411012 -0.3269862 -0.24121068 -0.29172587
-0.21455303 -0.18933149 -0.33834285 -0.25080004 -0.25907126 -0.24852401 -0.15994075 -0.24527663
-0.27844897 -0.19713339 -0.2111443 -0.25494513 -0.109272316 -0.3650141 -0.08676491 -0.06365191
-0.2672862 -0.26014924 -0.18413159 -0.17851382 -0.14337571 -0.2538641 -0.29872513 -0.25499666
-0.103871986 -0.21397811 -0.21087442 -0.2552623 -0.31488064 -0.2999888 -0.092301756 -0.23815188
-0.15621372 -0.24715197 -0.2894656 -0.30496866 -0.21503724 -0.26130003 -0.28583658 -0.19990857
-0.23163366 -0.3375691 -0.31951398 -0.20842205 -0.22090009 -0.2469426 -0.3123083 -0.26814997
-0.32342717 -0.19863997 -0.27774572 -0.3210503 -0.27259287 -0.3252569 -0.23986612 -0.11487049

weight f4 [128, 128]
00000000: f971 b0bb 32d3 6b3c ec78 c53b 4d67 00bd
00000010: a6aa b5bc ded4 38bc 2f42 933c e60a 333c
00000020: f108 f23c c5d0 cc3c 5c5f 0d3d a3d9 183d
00000030: f0d1 8c3c 2ae1 203d 54f4 133c c5a4 793c
00000040: b96d adbc c502 1b3d c7e9 0fbd 6b61 36bb
00000050: 5bf1 b6bb 7530 cc3c 49cc e63c 3d22 d1bc
00000060: cacc 813c 595e e2bc 2ac0 54bc 9e83 2abb
00000070: 33dc 203d 4e76 503d 1690 103c cd89 663c
00000080: ca7b ce3c bc34 453c 4b97 513c 030d 0e3c
00000090: 3ba9 26bd c091 a23a cd61 253c ae4a fa3c
000000a0: fa24 f5bc e5e0 8d3c b5ee 8c3c e9f5 e8bc
000000b0: 081f 073d 1f47 b0bc 16b6 20bd 38c3 633c
000000c0: ce1b e93c 066a 1d3d 337a 33bc 8ed9 013c
000000d0: 1547 d63c a25d 903c 0868 9ebc aac2 823c
000000e0: fcbc a43c 4242 eb3c e1fa a63c 1ffc fbbc
000000f0: f5ff c43c 4908 7b3c ca00 a2bc 4484 a93b
00000100: 61b7 8e3a e9d3 24bd c551 2cbd 8e63 26bd
00000110: 034b a1ba 4575 f03c aa0f 583b 1cb6 3c3c
00000120: 4707 0a3d 3991 3e3c ce23 1d3d fdf8 b13b
00000130: ddd5 c33c 0d36 08bd 7a75 493c 6431 833c
00000140: 8556 143d dc0b a73b c470 913b 3602 ae3c
00000150: 4b23 1ebd 94fa 263d cf35 f4bc 7753 1c3c
00000160: a411 7c3c f279 5f3c 8d11 ddbc d104 2cbc
00000170: 397c 55bc 01cd e73c f4d8 be3c 9b18 33bc
00000180: f577 cabc a13d d1bb 6e91 c93b d525 e23c
00000190: c3aa f13c b997 643b 1768 5f3c 95f0 adbc
000001a0: 9140 303c f60c 1cbb 1836 52bc 5ad3 62bc
000001b0: 8806 fa3c 755d 153d d0d2 853b 172e 88bc
000001c0: f63d 90bc 4ac9 1a3d b1ca 0c3d d541 c33c
000001d0: 523a 843c e436 1c3c f985 b93b b51a 393b
000001e0: d83e 1f3d 81f3 abba 92ad e13c 016e 853c
000001f0: 8700 8c3c 67ad 933b 548d 383c e2bc 80bd
00000200: 98da cb3c d363 29bc 51eb e43a 369e b4bb
00000210: b9c2 bc3c 32ec 8ebc 86be 49bd 4032 a439
00000220: c832 37bc 1f54 383b 93be 03b7 2d85 893a
00000230: d4ec 45bb c020 013d b246 3d3d 9a3d e6bc
00000240: 4c82 863c db7b 2abc a901 cb3c b4fc 003d
00000250: 6690 fcbc 392c 6dbb f2b6 3e3d 83e3 ba3c
00000260: 1dd2 6d3b 6c4f e73c 0c7f 01bb 9f47 6bbb
00000270: 46b1 b73c 4f7b db3c bd97 053d 5428 083d
00000280: 726c 8d3c 557a f63c 74bf 193c 2a45 783c
00000290: a919 d83b 3e67 c23c 7afa b73c 2c9d 5d3d
000002a0: d2e6 c63b 9625 fd3b ee25 5f3c 6d54 8dbb
000002b0: 66f9 b9ba 4596 60bb 96e9 173d 79fe 46ba
000002c0: f7c4 1fbc c0ef 623c 28a9 1e3b eb30 83bb
000002d0: 7d89 febb 3b64 b6bc 9249 07bd a41c 2ebb
000002e0: c91e 023d d48b c83c e05e 6a3c 683f bdbc
000002f0: 38df 3f3c beaf 213c 60a8 acbb be58 11bc
00000300: 123f 153d 92cd ddbc 02bc e0bb 8e5a 0e3d
00000310: f029 c13c bb0d c43b ab1b 7bbb b7ed 293b
00000320: 21f4 4b3c 658a 723c 09ae 23bb f5ab 7fbc
00000330: b2e2 13bc 8eb9 043d 9a15 32bd 2e9d df3b
00000340: 0c50 b7bc cca1 96bb d307 1a3c 1780 863c
00000350: 0143 093c 71a7 7a3c 4fca 22bd 869d 8f3b
00000360: 97a4 b13c 3d76 e43a 6d90 78bc 946b df3b
00000370: 726e c6bc 827e 3dbb 51b0 933a 5c1b 973a
00000380: 9316 8f3b 4adb f73c ef4b 2a3a c4bb 213c
00000390: 11dc d93b 45f9 bf3a 4d44 a4bc aa6d a9bc
000003a0: 0386 6e3c b128 033d f021 2a3c 92b8 c43c
000003b0: 6ac1 9c3b 6761 2a3d 4aa1 103c 4370 6c3c
000003c0: d449 97bc 4f68 1cbc 2eb9 bfbb b32b 023b
000003d0: da2e 173d cda2 0b3d f680 0e3c cc80 2ebc
000003e0: bc44 c13c 2be9 a83c 2853 373c 8ccb cab8
000003f0: 210d 93ba ce10 593b 448c 28bc d9b7 b63a
-0.0053846803 0.014393615 0.006026378 -0.031348515 -0.022176098 -0.01128122 0.017975895 0.010927891
0.02954528 0.025001893 0.03451477 0.03731693 0.01718995 0.039277233 0.00903042 0.015237038
-0.021170484 0.037844438 -0.035135057 -0.0027829062 -0.005582971 0.02492545 0.028173583 -0.025529021
0.015844721 -0.02763288 -0.012985269 -0.0026018391 0.0392725 0.050894074 0.008823415 0.01407094
0.025205512 0.012036499 0.012792419 0.008670094 -0.040688735 0.0012403056 0.010094118 0.030553188
-0.029924858 0.017319152 0.017203668 -0.028437572 0.032988578 -0.021518288 -0.03923615 0.013901524
0.028455641 0.03843119 -0.0109544275 0.007925404 0.026156941 0.017622773 -0.019336715 0.015961964
0.020109646 0.028718118 0.0203833 -0.03075987 0.024047831 0.0153218 -0.019775767 0.005173238
0.0010888391 -0.040241156 -0.04207017 -0.040622286 -0.001230568 0.029352793 0.003296832 0.011518028
0.033698346 0.0116313035 0.038364224 0.005431293 0.023905689 -0.03325467 0.012296075 0.016014762
0.036215324 0.0050978493 0.0044384915 0.021241289 -0.038607877 0.040766314 -0.029810814 0.009541384
0.015385065 0.013639914 -0.026985908 -0.010499195 -0.013030105 0.028295996 0.02329681 -0.010931159
-0.024715403 -0.0063855206 0.00615137 0.02760593 0.02950037 0.0034880473 0.013635657 -0.021232883
0.010757581 -0.0023811436 -0.01283028 -0.013844335 0.030520692 0.03646608 0.0040839687 -0.01662354
-0.01760767 0.03778962 0.03437299 0.023835102 0.01614109 0.009534571 0.0056617227 0.0028244678
0.03887829 -0.0013118834 0.027548585 0.016287806 0.017090095 0.004506755 0.011264164 -0.062860265
0.024884507 -0.010338741 0.0017465149 -0.0055120243 0.02304207 -0.017446611 -0.049253963 0.00031317957
-0.011181541 0.0028126312 -7.85258e-06 0.001049196 -0.0030200975 0.031525373 0.04621 -0.028105546
0.016419552 -0.010405506 0.024781065 0.031490996 -0.030830573 -0.0036189689 0.04656119 0.022813564
0.0036288567 0.028236113 -0.0019759564 -0.0035900844 0.022423398 0.026792197 0.032615412 0.033241585
0.017263625 0.03008763 0.009384025 0.015153209 0.006594856 0.02373087 0.022458304 0.05410497
0.0060699964 0.007725428 0.013619883 -0.004313043 -0.0014188706 -0.0034269255 0.037088 -0.000759102
-0.00975155 0.013851106 0.0024209712 -0.004003634 -0.0077678547 -0.02226459 -0.033029146 -0.0026567364
0.03176764 0.024480738 0.0143048465 -0.023101524 0.011710934 0.00986856 -0.0052690953 -0.008871255
0.0364371 -0.027075563 -0.00685835 0.03475433 0.023579568 0.005983082 -0.0038316052 0.0025929043
0.012448342 0.014803504 -0.002497556 -0.015604963 -0.009026216 0.03240352 -0.043477632 0.006824157
-0.022377037 -0.0045969244 0.0094012795 0.0164185 0.008377791 0.01529871 -0.039743718 0.004382792
0.021684928 0.0017430257 -0.015171153 0.0068182442 -0.024222586 -0.0028914516 0.0011267756 0.001152854
0.0043667047 0.030255932 0.00064963003 0.009871427 0.0066485484 0.0014646432 -0.0200521 -0.020682175
0.014558318 0.03202123 0.010384068 0.024013791 0.004783799 0.041596796 0.008827517 0.014431062
-0.018467821 -0.0095463535 -0.0058509326 0.0019862473 0.036909916 0.034090806 0.008697739 -0.010650825
0.023592345 0.020618996 0.01118926 -9.670024e-05 -0.0011219123 0.0033121589 -0.010287348 0.0013940289

bias f4 [128]
00000000: 0106 b13c abc9 e93a 215b 683b 3d2a 6b3c
00000010: c395 8e3c 33c8 293e 67f9 923c 6086 d83b
00000020: 5432 ba3c bc61 d83c d20a e43c 2c17 c43b
00000030: ee21 e23b a133 f33b 9e61 513b 39dd a03c
00000040: d87b eb3c b6d7 223a 1372 823c 7e21 b13b
00000050: 5bfa ed3c 9c6f c83c 0fce cd3b c6d6 913c
00000060: d609 aa3c 0c56 253c 7457 b43c 1c85 113d
00000070: 1804 663c 5204 2d3e 562d 953c 2889 323c
00000080: 7fda 683b cfdf 9f3c cd04 b83c f58e 303e
00000090: c5ab 0c3c 1cdc 2b3e 6bef 8b3c 8c18 aa3c
000000a0: b488 1e3c ced2 2f39 69fe cb3c fe55 c9ba
000000b0: f308 adbb bcca fc3b 32a6 fcbc e5bf 543c
000000c0: 6b47 e73c 46ea 9d3b 6910 2b3c a921 fa3b
000000d0: a0bc 49ba 94fc 0a3b adad bd3b e7d7 f13c
000000e0: 6469 213b b086 103c 089f 793c 7f3a 09bb
000000f0: bfab 9539 c17a f73c e643 3e3a ebee 933c
00000100: a22c 2c3e ffd8 8f3c e49e 343c 36bd af3c
00000110: 4280 033c 665b b33c 8084 8aba a368 a23c
00000120: d432 053d 4b9a 323e 481c 9f3c 993e f93b
00000130: 88a9 a43c 0882 873b b658 61ba 4b06 9538
00000140: f2f5 ec3b 5965 2f3e 5d5f 8c3c 416d e33c
00000150: eb08 2c3c b48b c73b ffa2 863a 312d 9a3c
00000160: 777a b73b f6b1 ae3c 3d7a 513b ec11 a9ba
00000170: 7499 8f39 a557 d23c 18e8 133c 7782 013c
00000180: d056 1f3c 6a33 b23c 2421 e73c 05e5 16bc
00000190: 53b9 cd3c 2020 e43c ea48 01bb 1ef6 693c
000001a0: 7fd8 763c d991 743c 3596 f83a 8e00 663c
000001b0: 87a1 8b3b 7c31 1b3b 9865 03bb 3360 fe3c
000001c0: df01 3bbd d073 283b 23c5 ea3c ab38 bd3c
000001d0: cae3 ba3c f662 693b aedd 08bb e84f dc3c
000001e0: e54f 1b3d 1d14 9c3b 19c4 993b 58c9 fd3c
000001f0: b9c1 61bc c296 5dbb 2db2 053c 0a8f 1c3c
0.021609308 0.0017836591 0.0035454708 0.014353332 0.017405396 0.16580276 0.01794119 0.0066078156
0.022729076 0.02641379 0.02783719 0.0059842076 0.0069010174 0.007421926 0.0031949054 0.019636737
0.028745577 0.0006211953 0.015923535 0.005405604 0.029050043 0.024467282 0.0062806676 0.017802607
0.020756643 0.010091316 0.022014357 0.035527334 0.014039062 0.1689618 0.018210094 0.010896958
0.0035530624 0.0195159 0.022463227 0.17242034 0.008585875 0.16783184 0.017081937 0.020763658
0.009676147 0.00016767831 0.024901586 -0.0015360711 -0.005280608 0.0077145975 -0.030840967 0.012985204
0.028232297 0.0048191873 0.010440924 0.007633407 -0.0007695649 0.0021207677 0.005788526 0.029521896
0.0024629468 0.0088211745 0.01523567 -0.0020939407 0.00028547455 0.0302099 0.00072580425 0.01805826
0.16813901 0.017559526 0.011024211 0.021452527 0.0080261845 0.021894168 -0.0010568053 0.019825285
0.032519177 0.1744167 0.019422665 0.007606339 0.02010037 0.004135374 -0.0008596288 7.106046e-05
0.0072314674 0.17128505 0.017135317 0.027762057 0.010500173 0.006089652 0.0010271965 0.018820377
0.0055993157 0.021325093 0.0031963729 -0.0012899018 0.00027389417 0.025676558 0.009027503 0.00790464
0.009725288 0.021753032 0.028214045 -0.009209876 0.025112784 0.02784735 -0.0019727298 0.01427987
0.015066265 0.014927351 0.0018965664 0.014038218 0.004261199 0.0023680618 -0.0020049568 0.03105173
-0.04565608 0.0025703795 0.028658455 0.02309831 0.022813696 0.0035611964 -0.0020884085 0.026893571
0.03791799 0.00476314 0.004692566 0.030979797 -0.013779097 -0.0033811782 0.008160156 0.009555588

weight f4 [1, 128]
00000000: c774 5a3e a752 383e da1a 5e3e 9beb 603e
00000010: 0f38 7a3e 67ff 00bf f09c 5d3e b1ca 453e
00000020: 0872 5b3e d13e 6b3e 459f 803e 616c 5e3e
00000030: c3fa 613e 71f8 4c3e 29d7 5f3e 6902 613e
00000040: 0b67 7a3e a877 4d3e 9386 573e 4be6 5c3e
00000050: 0e8a 663e cba7 4f3e 1fcd 453e 5323 613e
00000060: 01c4 6d3e c6b1 693e 44ba 683e 2d7a 823e
00000070: 2e4b 583e e6ad 11bf 64e3 773e c4ea 643e
00000080: 5b41 553e b5ef 763e 2130 833e 1d3e 14bf
00000090: a1a1 683e 9812 09bf 92fa 5f3e 2491 6a3e
000000a0: 0946 603e c2df 433e 39e7 7d3e ac55 5b3e
000000b0: 8f48 4d3e 6d30 613e 1778 5d3e edb1 583e
000000c0: 110e 823e c7e3 593e 02e0 7b3e 4e92 3d3e
000000d0: 6d29 563e c24c 3f3e c5ec 5b3e 1914 793e
000000e0: 5ab7 5f3e 57f7 743e 0bae 6c3e a0bc 493e
000000f0: ea1e 3d3e f74a 873e 1935 443e df86 5a3e
00000100: e3fc 0dbf 9cee 693e bc80 4b3e 9b2a 853e
00000110: 1bde 4e3e 7bdf 5f3e cab2 4a3e 1eac 683e
00000120: 734d 8c3e b96c 15bf 3183 513e e3be 433e
00000130: e635 743e 4065 4d3e 663e 583e 1890 583e
00000140: 4359 643e 6255 17bf 8181 5b3e a04a 803e
00000150: a8dd 5c3e 3649 5c3e 1418 623e d82b 683e
00000160: 0fab 713e cb60 753e 7cbe 5f3e f105 453e
00000170: 3fc5 433e 0972 713e 775f 603e cfa6 523e
00000180: 9b1e 633e 97c1 5c3e 8fd9 7b3e 29ef 503e
00000190: 14b9 7b3e 7c05 823e a20c 453e c354 563e
000001a0: 4e00 633e 1391 803e c294 533e 5ec2 793e
000001b0: e936 533e 8421 5b3e fcf5 493e 013a 843e
000001c0: 5b76 7c3e dafd 483e 20e8 813e a970 763e
000001d0: 6ac2 823e b61c 603e e9f8 5f3e 002c 773e
000001e0: 9fd5 943e 3f46 6f3e 8510 4b3e 6fe9 803e
000001f0: 52a0 3c3e 7c55 173e 5be9 6c3e c7d2 5e3e
0.2133361 0.1800028 0.2168993 0.21964876 0.24435447 -0.50389713 0.21641898 0.19315602
0.21430218 0.22973181 0.25121513 0.21721031 0.22068314 0.20016648 0.21859421 0.21973576
0.2445337 0.20065176 0.2104743 0.21572225 0.22513601 0.20278852 0.19316529 0.21986131
0.23219301 0.22821721 0.22727305 0.25483838 0.21122429 -0.5690597 0.24207836 0.22355181
0.20825712 0.24114878 0.25622657 -0.5790728 0.22717907 -0.53543997 0.21872929 0.22906929
0.21901716 0.19128326 0.24795236 0.214194 0.2004721 0.21991129 0.21627842 0.21161623
0.25401357 0.21278296 0.24597171 0.18512842 0.2091424 0.18681625 0.21477039 0.24324073
0.21847287 0.23922478 0.23113267 0.19700861 0.18468824 0.2642438 0.1916088 0.21340512
-0.55464 0.22844929 0.19873327 0.26009068 0.20201914 0.21862595 0.19794765 0.22721907
0.2740284 -0.5836902 0.20460202 0.19115786 0.23848686 0.20058155 0.21117553 0.21148717
0.22299676 -0.5911466 0.2143612 0.25056934 0.2156893 0.21512303 0.22079498 0.22672975
0.2360041 0.23962705 0.21850008 0.19240548 0.19118212 0.23578657 0.21911417 0.20571445
0.22179644 0.21558224 0.24594711 0.20403732 0.2458232 0.2539481 0.192431 0.20930772
0.22168085 0.25110683 0.20662215 0.24390551 0.20626415 0.21399504 0.19722742 0.25825503
0.24654524 0.19628087 0.2537241 0.24066414 0.2553895 0.21885952 0.21872295 0.24137878
0.2906923 0.2336664 0.1983052 0.25178096 0.18420532 0.14778703 0.23135893 0.21760093
