MathorCup2021/Results/net_B.pkl (torch_old, 939736 bytes, 9 tensors)

weight f4 [256, 135]
000000 89 96 8b 38 eb 84 17 ba b2 e4 13 39 71 a1 b3 b7
       6.656076e-05 -0.0005779999 0.00014104208 -2.141364e-05
000010 94 0c 46 b8 b2 4b f2 bb 2b ca 94 b8 97 9f 2e 39
       -4.7218593e-05 -0.0073942775 -7.094847e-05 0.00016653385
000020 44 c0 58 bb fc a0 c9 b9 cb e7 8f ba e7 ad d0 39
       -0.0033073584 -0.0003845765 -0.0010979114 0.0003980242
000030 f9 f9 d5 3a f5 9d ba 3a 56 f9 3f 3a 10 91 2f ba
       0.0016325108 0.0014237749 0.0007323226 -0.0006697336
000040 29 c4 5d ba 4d a8 74 3b 09 c7 10 ba a4 a1 e2 38
       -0.0008459711 0.003733176 -0.00055228226 0.00010806628
000050 d9 3f 1c ba 8d 35 6a 39 35 ea 60 ba e5 af 04 3b
       -0.0005960442 0.00022335928 -0.00085798214 0.0020246443
000060 41 20 4f ba 01 ce 5b ba c4 8a 5a 3b d8 33 13 37
       -0.00079012295 -0.0008384884 0.003334687 8.773954e-06
000070 9b f1 50 ba cc 02 94 bb e7 12 d4 b9 25 7c 6c 3a
       -0.00079705723 -0.004516935 -0.00040449874 0.00090211845
000080 dd 9d 10 bb f0 fe 4f ba 15 58 56 ba 6a 3b 9f 3b
       -0.002206675 -0.0007934412 -0.00081765774 0.0048593776
000090 9d 5d 36 ba 14 40 28 ba fa eb 45 3b 13 4a 3b ba
       -0.00069566985 -0.000641824 0.0030200467 -0.0007144522
0000a0 96 d7 b4 b9 2e 66 5e 3c 07 7b 28 3a 77 02 c5 ba
       -0.000344929 0.013574166 0.0006427024 -0.0015030642
0000b0 e5 ce cf 3a b5 1a 9d 39 ca 5c 86 ba 28 42 d7 3a
       0.0015854506 0.00029965272 -0.0010251042 0.0016422914
0000c0 8b 85 60 b9 fa 23 39 ba c1 c8 10 3b 3d 61 39 ba
       -0.00021412053 -0.0007062551 0.0022092315 -0.00070716796
0000d0 83 68 bd b7 3f 15 2a 3c 64 bd 01 b9 cf 3a 5e b9
       -2.2579223e-05 0.010381042 -0.00012372952 -0.00021193478
0000e0 00 59 01 bc f6 da 69 38 0d 80 d5 b9 c1 14 13 3a
       -0.007894754 5.5755452e-05 -0.0004072193 0.00056106976
0000f0 4f 78 9a 39 9e 36 7d ba 9e 64 6e bb 67 42 1e 3a
       0.00029462806 -0.00096593227 -0.003637589 0.00060371164
000100 9d 70 10 bb 2d b8 bd 3a 2f 83 9a 39 ca ba 95 ba
       -0.002203978 0.0014474444 0.00029470908 -0.0011423465
000110 e0 5a 0d bb 4e f5 c1 39 03 de c4 ba 57 04 af ba
       -0.0021569058 0.00036994595 -0.0015019778 -0.0013352734
000120 3f 0c f9 38 68 3a f7 ba 9a d6 13 3a eb 12 0d 3a
       0.00011875526 -0.0018862011 0.0005639583 0.0005381542
000130 14 11 99 ba 3f 6c 21 3b ce 7a 50 3a e1 73 a9 ba
       -0.0011678063 0.002463117 0.00079528696 -0.0012928211
000140 13 a7 18 37 f1 b1 a3 3a 08 1a 70 ba 58 27 28 3b
       9.098806e-06 0.0012488944 -0.00091591524 0.0025658216
000150 6b 2b 58 39 17 26 ef ba 78 36 80 3b 2f f8 18 ba
       0.0002061554 -0.0018245605 0.003912743 -0.0005835322
000160 57 9d 0e 39 f7 68 57 bb a9 95 fc b9 6b f0 2b ba
       0.00013600789 -0.003286896 -0.0004817669 -0.00065589574
000170 25 4f 17 3b d1 e8 a3 ba 50 b6 54 b6 89 eb 48 b9
       0.0023087945 -0.0012505298 -3.1696582e-06 -0.0001916123
000180 36 30 6c ba a3 28 3c 37 7c 6e 56 bb e3 3b 53 39
       -0.00090098695 1.1215135e-05 -0.0032719662 0.00020144838
000190 7f 6b d8 ba a7 b4 98 ba 4a 23 2c 3a 19 4f f2 ba
       -0.0016511529 -0.0011650518 0.0006566538 -0.0018486708
0001a0 1c 9a 24 3b d9 aa af 3a 7d a6 e2 ba 71 d9 e1 3a
       0.002511627 0.0013402357 -0.0017292049 0.001723094
0001b0 dd 9f 48 3a 21 76 1a bb d7 5e 22 39 d6 d4 18 39
       0.0007653216 -0.0023568945 0.00015484855 0.00014575137
0001c0 a7 55 07 bb 66 85 1d bb 0c 83 07 38 8f a5 94 ba
       -0.0020650418 -0.002403581 3.2308555e-05 -0.0011340844
0001d0 1d c1 9a 3b 0b ba ae ba 7f 0f 8f 3c 11 e0 c4 bb
       0.004722728 -0.0013330592 0.017463444 -0.006008156
0001e0 48 6f 1d ba 41 12 ed 39 df 20 7e 3a 57 fe 4e ba
       -0.0006005657 0.00045217763 0.0009694229 -0.0007896176
0001f0 c7 3c 48 b9 2c d8 12 bc d3 8e 0b ba 40 c6 de 39
       -0.00019096128 -0.008962672 -0.00053237117 0.00042490847
000200 e0 d1 70 bb e4 f9 5d b9 be 92 a0 39 11 97 dc bb
       -0.003674619 -0.00021169294 0.0003062691 -0.0067318757
000210 37 c0 15 3b a9 7e 63 3c dd fb 37 bb 6d 5a 67 bb
       0.0022850165 0.013885179 -0.0028073706 -0.00353017
000220 6b b5 8d bb d6 4e e8 3b 93 88 1e bb 21 0d 1e bc
       -0.004324605 0.007089476 -0.0024190291 -0.009646685
000230 35 33 24 bc 95 3d b1 bb fc 28 66 bc 58 a0 ca 3a
       -0.010021974 -0.0054089525 -0.014047857 0.0015459163
000240 be 80 94 ba 77 ff dd bb 13 ab ef 3b 6f e3 ca 3b
       -0.0011329872 -0.0067748385 0.007314095 0.006191663
000250 dc 79 36 ba 65 fd 01 bc d3 4d 54 3b dc 53 30 bb
       -0.00069609075 -0.007933949 0.003239502 -0.0026905453
000260 17 2a 92 bb 46 7f 60 ba 8e 8a 57 bc 1d f2 92 3b
       -0.004460584 -0.0008563887 -0.013155593 0.0044844286
000270 0f 84 57 bc 8b a2 10 3a 04 fb cc b9 e6 0b 8f ba
       -0.013154044 0.0005517385 -0.00039096933 -0.001091358
000280 5a 1d 1d bb 17 98 d9 3b f9 7e 2e bc 9e 65 42 bc
       -0.0023973794 0.006640445 -0.01065039 -0.011865048
000290 75 8c 33 bc 62 48 83 bb 77 b2 b8 bc f4 d9 b1 bb
       -0.010958781 -0.0040064314 -0.022546036 -0.0054275934
0002a0 d3 88 8c 3b f8 70 33 bc 2d cf b9 3c 70 6d 45 3b
       0.0042887717 -0.010952227 0.022681797 0.0030125044
0002b0 d6 10 f5 ba 05 6a d9 3b d4 09 12 3c ed 4b 96 bb
       -0.0018697034 0.006634953 0.008913476 -0.004586688
0002c0 ec d0 75 3d de 46 3b 3b d5 60 a4 3b 8a 9a 18 bc
       0.060013697 0.0028576176 0.005016426 -0.009314189
0002d0 97 03 2b 3b bb d4 4d 3b 1b da 51 3c 7e eb ce 3b
       0.002609467 0.0031407315 0.012808348 0.006314694
0002e0 a6 1f 0c ba 77 17 e3 3a 5b da 1a 3c d7 f8 fb b9
       -0.0005345292 0.0017325719 0.009451474 -0.0004805985
0002f0 db 4d 8a 3d 8b c5 d0 3b 82 e0 5c bb b2 85 a5 bc
       0.06753131 0.006371205 -0.0033703153 -0.020205352
000300 ee 92 21 3c b6 83 db 3b c6 58 8d 3c 53 7a db 3b
       0.009861691 0.006699051 0.017254245 0.006697932
000310 72 f3 37 3c 09 bc c2 ba f1 f3 94 3b d2 8f 0a 3c
       0.0112274755 -0.0014857064 0.0045456816 0.008457141
000320 b4 b2 9d bb 45 e7 9a 3b 98 9c af 3c 34 10 fe 3b
       -0.004812563 0.0047272765 0.021436974 0.0077533964
000330 41 5e 11 bb 8d 91 88 3c 79 45 d3 bc ce 95 b9 3a
       -0.0022181424 0.016670967 -0.025789963 0.0014159025
000340 6e a6 91 3c 93 88 18 3b f7 0e 39 bb 58 2e 3d 3c
       0.017779555 0.0023274764 -0.002823768 0.011546694
000350 63 af 9e bb 59 a0 be bb 5a 1c 9b 3c 47 86 b4 bc
       -0.004842685 -0.005817455 0.018934418 -0.022036685
000360 e3 c5 e0 bb 80 72 dc 3b 01 97 2c bc f7 05 02 3b
       -0.0068595274 0.0067275167 -0.010534049 0.001983998
000370 72 ca 21 3c 16 f1 25 bc 84 de 21 bb 8f 12 75 39
       0.009874927 -0.01012828 -0.002469928 0.00023371934
000380 0f eb 0f 3b 87 d2 a9 3b c2 bf 06 bc 27 bb 1a bb
       0.0021960174 0.0051825675 -0.00822443 -0.0023610087
000390 39 fe 29 bb 7b db 04 3c c8 b7 cf bb 7e e1 b1 39
       -0.0025938882 0.008108969 -0.006339047 0.00033928076
0003a0 ff ca 3f bb 64 81 57 bc 31 b9 8f bc d0 a7 05 bc
       -0.0029265282 -0.013153408 -0.01754436 -0.008157685
0003b0 a3 a8 46 bb 8b 33 80 bc 6a e1 46 bb 83 7c 27 3c
       -0.0030312918 -0.015649578 -0.003034676 0.010222557
0003c0 d7 47 35 bc 89 29 87 3c fb ea 93 3b 2f 2e a9 bc
       -0.011064491 0.016499298 0.004514096 -0.020651905
0003d0 c4 88 01 3c d6 30 f7 3b f5 19 be bc fa 99 5f bb
       0.007906143 0.0075436635 -0.023205737 -0.0034118877
0003e0 0f 9e 76 bb e9 71 c1 3b a9 a8 82 3a ca 19 23 bc
       -0.0037630831 0.0059034717 0.0009968478 -0.009954879
0003f0 b9 2b e7 3a 8b 6b 91 bc 6e f4 47 3b c5 e4 5d bb
       0.0017636932 -0.017751476 0.0030510682 -0.003385828

bias f4 [256]
000000 82 4f b4 3a a7 83 53 3b e0 e6 86 3b 08 68 65 bb
       0.0013756605 0.0032274516 0.004116878 -0.0035004634
000010 7a 9a 3e ba 30 ec 4c 3a 12 3c d9 bb d3 d5 65 bc
       -0.00072709436 0.0007817177 -0.0066294754 -0.01402803
000020 93 53 bf bb 29 56 02 39 a1 c8 16 bc 0a 3c d4 3a
       -0.0058388202 0.00012429863 -0.009203107 0.001619221
000030 01 45 22 bc 2a 47 ac 3b 25 04 a6 b8 f9 c5 e2 3b
       -0.009904147 0.005257507 -7.916269e-05 0.006920573
000040 33 73 9a 3b e3 06 8d 39 12 a8 bb ba 92 3f e4 b9
       0.00471344 0.00026898747 -0.0014317057 -0.00043534912
000050 f0 e3 e7 3b 24 97 a1 bb 99 7e 0c 3c 8a e2 9e 3a
       0.007076733 -0.0049313474 0.008575105 0.0012121957
000060 66 7c 7a bb ff 03 72 bb 92 e6 76 3a 10 57 3d 3c
       -0.003822112 -0.0036928651 0.0009418513 0.011556402
000070 74 aa 78 38 95 f2 a3 3b f4 27 a5 3a dd 03 a7 39
       5.9286554e-05 0.0050032833 0.0012600408 0.000318556
000080 28 40 96 bb ef f5 ab 3b 9a c3 58 bb 99 cf 54 3a
       -0.0045852847 0.0052478234 -0.0033075572 0.00081180927
000090 21 5f f1 3a b2 dc 7d 3b 01 40 ea b8 1d 24 bf 3a
       0.0018415191 0.003873628 -0.00011169911 0.0014582906
0000a0 80 c9 97 3a 51 3b c7 3b 92 b6 40 bc 96 29 98 3a
       0.0011580437 0.006080069 -0.011762278 0.0011609073
0000b0 35 0a 67 bb 46 b0 19 3b 09 22 d8 38 db 07 2d 3a
       -0.0035253887 0.0023451014 0.00010306022 0.0006600597
0000c0 29 67 34 b9 6f 3e 93 ba 50 cb e1 3b d3 44 bb ba
       -0.00017204568 -0.0011233817 0.006890692 -0.0014287479
0000d0 03 cc 26 b9 e9 a6 ad 3c 5e 4d ad 3b fc 1c 4f 39
       -0.00015906994 0.021197753 0.005288764 0.00019751856
0000e0 59 a5 5f bb b7 92 53 bb 4f 42 91 b9 74 06 b6 39
       -0.0034125654 -0.0032283494 -0.0002770596 0.00034718553
0000f0 3c 11 e9 ba 05 7b e7 39 cc b9 85 38 a5 c5 fc ba
       -0.0017781626 0.0004415141 6.3765416e-05 -0.0019284977
000100 46 8e 7e 39 93 35 89 39 c1 f5 04 ba f6 e3 5d 3c
       0.00024276329 0.00026170592 -0.00050720206 0.01354312
000110 5d 21 1e 3b ff 25 78 39 c5 05 16 3a 09 64 4b 3b
       0.0024128773 0.00023665278 0.00057229056 0.0031034967
000120 d9 62 73 39 70 b1 a0 3b 82 cd 14 ba 81 83 05 3b
       0.0002321111 0.0049039647 -0.0005676375 0.0020372572
000130 6b e8 ee 39 31 72 18 39 6d b7 5a 3a d9 a9 a9 3b
       0.00045568062 0.00014538389 0.00083433726 0.005177718
000140 0d d0 84 3c 91 52 02 3a de ba d0 3c 3e 0c 0a bb
       0.016212488 0.000497141 0.02547973 -0.0021064426
000150 e2 8a 6c 3b d9 60 a1 bb dc bc 78 39 77 35 ae ba
       0.0036093523 -0.004924875 0.00023721479 -0.001329108
000160 4c 71 71 3a 49 8d 3a 3b 40 8e 56 3b 27 3d 09 3a
       0.0009210303 0.002846556 0.0032738596 0.00052352477
000170 d1 63 ad bb c4 66 21 3b 75 79 09 3a 8c 94 d3 3a
       -0.00529144 0.0024627903 0.0005244234 0.0016142293
000180 e7 43 94 ba 52 af dd bb 78 fc 29 39 06 05 29 ba
       -0.001131174 -0.0067652846 0.00016211148 -0.0006447587
000190 86 55 5a 3b 97 8a 08 3b ee 6f 24 3a ca f9 a9 39
       0.0033315136 0.002083456 0.00062727823 0.000324203
0001a0 64 db 3b 3b 43 fb a6 b9 1e 5b 11 3a 27 19 b1 bb
       0.0028664703 -0.00031849192 0.00055448886 -0.0054046097
0001b0 a3 83 82 3b 3b fd c0 38 b7 9c 32 bb 09 6b 6a 39
       0.0039829775 9.202441e-05 -0.0027254054 0.00022355853
0001c0 09 db ec ba 65 cc 21 3b 34 4a e4 bb a5 cc 3b 3c
       -0.0018070649 0.002468848 -0.0069668535 0.011462365
0001d0 fa 39 01 3c be 3c da 39 97 d0 a2 bb b1 b0 11 bb
       0.007887358 0.00041625457 -0.0049687135 -0.002223056
0001e0 c8 ca ce 3a a7 7a f7 3a 70 eb 5d 3b ae 22 ea 3a
       0.0015776986 0.0018881158 0.0033862256 0.0017863119
0001f0 00 57 89 3b 48 fe c7 b7 e1 9b 2f bb fb 09 ba 3a
       0.0041912794 -2.3841058e-05 -0.0026795792 0.0014193648
000200 7e 35 8f 39 aa cd be 3b 63 22 9d 3a 01 e0 ab 3a
       0.0002731494 0.005822857 0.0011988397 0.0013113023
000210 aa d4 bc 38 1d e7 3e bb ff 21 70 36 cc 1f ca ba
       9.00415e-05 -0.0029129453 3.5782575e-06 -0.0015420853
000220 a6 d2 24 3a 63 50 ab 39 55 92 62 bb 53 3f e3 ba
       0.00062874926 0.00032675554 -0.0034572084 -0.0017337598
000230 25 43 da 3a 40 66 cc 3a 69 df cf ba e7 ba 98 bb
       0.0016652091 0.0015594438 -0.0015859428 -0.0046609524
000240 fe be 0d 3c 08 bd 41 bb c8 c6 97 b8 1a eb 8e 3a
       0.008651493 -0.0029562134 -7.237267e-05 0.0010903806
000250 1c 4a 5a bc e1 08 f9 3a 9f f1 aa 3a 8d 95 d8 bb
       -0.013323333 0.0018999839 0.0013041979 -0.0066096247
000260 7b cb 32 3a 8f 2c 03 3b fd 34 1b bb 53 15 1c bc
       0.0006820482 0.0020015573 -0.0023682707 -0.009526568
000270 4d 28 56 ba 9f 85 d0 b9 ba 7d 31 3a 32 f3 f8 38
       -0.00081694574 -0.00039772407 0.0006770749 0.0001187086
000280 ee a7 86 b9 3a d3 59 3b cd 48 6a 3a 3d 79 9f 3a
       -0.0002568359 0.0033237473 0.000893724 0.0012166869
000290 ac f8 dd bb db d2 8f 3b 06 0f 43 3c 97 1d 3e ba
       -0.0067740288 0.0043891496 0.011905437 -0.0007252334
0002a0 67 f8 b3 bb f9 a7 df bb 59 90 c0 b9 c0 4f 2e 3b
       -0.0054922584 -0.006825444 -0.0003672864 0.0026597828
0002b0 b1 f3 f0 3a c3 fa 85 39 4a 0d 27 3a 78 17 60 3b
       0.0018383173 0.0002555457 0.00063725247 0.0034193676
0002c0 ca fb 7f ba 5c 7f 18 bb 17 d1 9e bb 90 10 bf 3a
       -0.00097649975 -0.0023269271 -0.004846703 0.001457708
0002d0 c8 d5 11 3c ad 7e f1 3a 5d 6d 95 3b e5 c1 04 bb
       0.008901067 0.0018424593 0.0045601563 -0.0020257172
0002e0 d5 67 ea 39 8f 46 5d 3a 78 73 ea 39 7e 8c c6 bc
       0.0004470932 0.0008440995 0.0004471799 -0.024236914
0002f0 76 55 43 ba 94 72 33 3b 62 73 96 39 83 ec d1 bb
       -0.00074513943 0.0027381526 0.00028696196 -0.006406368
000300 c7 38 e1 39 15 4e bb 39 cb be 28 bb 01 cc 39 3b
       0.00042957647 0.00035725595 -0.0025748487 0.0028350356
000310 e5 7a 81 b9 2b 56 02 3b 27 d4 b5 bb 26 3c 6e 37
       -0.0002469636 0.0019887786 -0.005548972 1.419991e-05
000320 4e 92 fa 3b 46 2a 8f bb f5 f6 08 ba 78 07 47 3a
       0.0076468354 -0.004369053 -0.0005224788 0.00075923605
000330 68 1c 1e 3a 19 c6 a0 ba 91 f7 b6 39 6b 8d 29 3b
       0.00060314545 -0.0012266069 0.00034898196 0.0025871645
000340 b4 0e 80 37 3a 06 b7 39 60 aa 07 3b a3 9e 6f 3b
       1.5265636e-05 0.0003490912 0.0020700917 0.003656306
000350 1a 62 69 ba ba 46 41 3c c3 e9 d0 bb b1 8e 60 3c
       -0.0008902863 0.011796648 -0.006375523 0.013705895
000360 9a da 98 b9 11 f7 b9 3b d7 64 18 bc fe 9d 1c ba
       -0.0002915457 0.0056752046 -0.009301386 -0.00059744704
000370 79 f5 98 b9 49 33 15 bc 9f 5e 9e ba 9d df af 3a
       -0.0002917459 -0.009106466 -0.0012082643 0.0013418082
000380 72 72 30 3b 1d b8 87 3c ca 6e 50 3a 01 81 30 3b
       0.0026923683 0.016567284 0.0007951079 0.002693236
000390 f0 09 15 3a 28 74 22 39 11 26 c7 3a 28 bd 80 3a
       0.000568538 0.00015492796 0.001519384 0.0009821998
0003a0 e2 7f 0e 38 86 95 91 ba a6 6d 97 3a 63 42 ef 3a
       3.397454e-05 -0.0011107184 0.0011553064 0.0018254038
0003b0 68 bd bb 39 a3 52 8c 3a a5 a6 f8 3b e8 cc 68 3a
       0.00035808538 0.001070578 0.007588225 0.0008880631
0003c0 85 5c 22 bb 0a 83 3b 3c a5 cf f0 3a 0d 1c 65 3b
       -0.0024774384 0.011444816 0.001837243 0.0034959347
0003d0 7c 3f ae 3b 59 e0 2d bb 07 34 ea bb 5a 17 23 ba
       0.0053176265 -0.0026531427 -0.0071473154 -0.0006221436
0003e0 c6 47 43 39 7a 0a 2d 3c b7 a7 37 ba a4 9a 92 39
       0.00018623387 0.01056158 -0.00070058875 0.00027962506
0003f0 79 c3 33 bb 2f 3e c0 bb b4 62 19 3a 15 ee 1d 3b
       -0.0027429743 -0.005866788 0.0005851195 0.0024098207

weight f4 [256, 256]
000000 1c 56 8b b7 78 f3 e6 ba 33 3b 74 39 14 01 69 3a
       -1.6610189e-05 -0.0017620167 0.00023291707 0.0008888405
000010 c7 32 23 39 77 ce 6e 38 b4 11 95 ba d1 02 89 b9
       0.00015563807 5.6935907e-05 -0.0011373074 -0.00026132775
000020 73 97 c8 ba fb ef a3 b5 98 12 24 bb 51 f6 90 b7
       -0.0015303924 -1.221429e-06 -0.0025035497 -1.7280838e-05
000030 75 66 55 3a 91 db 80 39 ba 1e 10 38 0d 18 cd 38
       0.00081405725 0.00024577652 3.436089e-05 9.7796416e-05
000040 dc 0e 9a 39 11 05 85 37 9e 44 82 39 2d fc ed 38
       0.0002938424 1.5857195e-05 0.00024846656 0.00011348012
000050 d2 35 9e 39 e2 15 7f 3a 2a fb 86 b9 b9 df 52 b7
       0.00030176208 0.0009730739 -0.00025745603 -1.2569065e-05
000060 9f 9e b2 b9 e5 03 71 3a 0c 5b fc b9 11 2a ff 39
       -0.00034068988 0.0009194001 -0.0004813302 0.00048668732
000070 35 a4 64 38 52 bc 59 b9 85 5f 2e b8 aa 57 22 b9
       5.4512366e-05 -0.00020764887 -4.1573792e-05 -0.00015482181
000080 b4 ed 95 3a 5a 4e ae 39 6f 5a 92 39 68 b2 e0 b7
       0.0011438639 0.00033246243 0.00027914668 -2.6785958e-05
000090 2c 06 c7 b7 ac 0a 30 39 d4 fc 69 39 71 82 7c b7
       -2.3725523e-05 0.00016788644 0.00022314797 -1.5050741e-05
0000a0 b9 5e d6 b7 dc d1 dd 39 93 b7 4b bb f5 b7 bc b9
       -2.5554897e-05 0.00042308762 -0.003108476 -0.00035995213
0000b0 ef f4 98 ba e3 c5 bc 38 6c 44 0c b6 ff 7c f2 39
       -0.0011669676 9.001398e-05 -2.0901452e-06 0.00046250966
0000c0 1a 66 1f 3a cc 68 72 39 d0 60 a9 39 de 96 9d 39
       0.0006080583 0.00023117958 0.00032306323 0.00030057778
0000d0 f5 9c 06 b7 36 96 16 3a fc 33 98 39 c3 19 0b b6
       -8.023567e-06 0.0005744429 0.0002903043 -2.072761e-06
0000e0 69 66 ab ba 72 19 52 3a 3b 95 de b9 1a fa f6 b6
       -0.0013076785 0.0008014656 -0.00042454325 -7.360487e-06
0000f0 f2 37 1b 3a fd 84 2f 3a 04 01 28 b5 db 75 c6 39
       0.0005921117 0.0006695537 -6.2586355e-07 0.00037853312
000100 3b ec e4 38 57 4b 22 b9 a1 90 f7 38 7b f5 ae ba
       0.000109158886 -0.0001547759 0.00011804817 -0.0013348305
000110 e4 3c d5 b7 dc 19 ad b6 aa 60 c3 b6 87 aa 7a 39
       -2.5419933e-05 -5.158812e-06 -5.822706e-06 0.00023905384
000120 c7 87 3b 38 04 1c 55 b8 2a 9b b4 3a 50 f1 1b ba
       4.4710727e-05 -5.080925e-05 0.0013779153 -0.0005948739
000130 5a 69 07 b9 da 56 81 b9 43 46 2f b9 cf 1a bf 39
       -0.0001291385 -0.00024669507 -0.00016715475 0.00036450333
000140 29 4c ff b9 85 9f c0 b6 32 70 9e 3a 35 52 01 ba
       -0.00048694134 -5.7406164e-06 0.001208788 -0.0004933209
000150 f9 ae 3e b9 32 d5 96 3a d2 65 3b b6 7f 5c 9d 39
       -0.00018184994 0.0011507629 -2.7924439e-06 0.00030014288
000160 72 53 ed b9 97 2e fc b7 11 81 7b ba 14 3f af b6
       -0.00045266334 -3.0062436e-05 -0.00095941225 -5.2227497e-06
000170 c9 30 78 3a ce 25 da b7 ce 3c 9f b9 1f 19 de 38
       0.0009467719 -2.600523e-05 -0.00030372146 0.00010590464
000180 b3 64 82 39 a8 13 ea ba 12 4f 8d b9 f6 84 86 39
       0.0002487056 -0.0017858641 -0.00026952528 0.00025657535
000190 77 02 ea b8 d3 ec e0 b7 6e 61 df b6 49 97 39 b8
       -0.000111584486 -2.681316e-05 -6.65726e-06 -4.4248332e-05
0001a0 13 b4 8d ba d9 9c 7c 38 c2 01 54 b7 00 05 98 3a
       -0.0010811113 6.0227558e-05 -1.2636594e-05 0.001159817
0001b0 b7 9a 2f b8 0c 95 81 b5 cb d8 55 ba ab 82 23 39
       -4.186734e-05 -9.654627e-07 -0.000815761 0.00015593569
0001c0 cd 9f c5 39 8c fb a7 ba 55 25 f6 ba 9a 84 fb 39
       0.0003769383 -0.0012816056 -0.0018779436 0.00047973247
0001d0 c0 aa 03 3a 28 c3 57 b9 7b 81 a8 3a a5 be d1 39
       0.0005022697 -0.00020576699 0.0012855971 0.00040005628
0001e0 73 2a 7e ba 1b 96 2e b8 ae f0 2d 39 ac f6 96 38
       -0.00096956565 -4.162463e-05 0.00016588226 7.1985036e-05
0001f0 f4 65 76 39 ce 05 20 39 3b 4b 54 3a d8 e8 60 b7
       0.00023498369 0.00015260951 0.00080983684 -1.3405654e-05
000200 bf 34 37 b6 7b fd 0b bb f0 5f 53 b7 f5 ef 8c 38
       -2.7299827e-06 -0.0021360803 -1.2598917e-05 6.720416e-05
000210 fb 10 1d 39 2c b0 48 3a d4 c1 f5 38 83 c7 d4 b9
       0.00014979012 0.0007655646 0.00011718614 -0.0004058444
000220 4a 51 f1 b6 24 57 7c 38 c4 78 62 3a fe fe d3 39
       -7.191823e-06 6.0162638e-05 0.00086392113 0.0004043504
000230 8a 47 15 3b b2 68 3f b9 98 19 d4 39 0e 60 8a ba
       0.0022778236 -0.00018254181 0.0004045486 -0.0010557191
000240 13 ae 01 3a d6 a9 73 ba 5a d2 b8 37 ca 73 eb b9
       0.00049468986 -0.0009295022 2.2032462e-05 -0.00044908962
000250 0e d5 9d 3a 06 61 08 ba 3c 51 39 ba b9 f8 e5 ba
       0.0012041645 -0.0005202446 -0.0007069295 -0.0017545439
000260 1d 28 23 38 23 e5 af b7 9d 61 cd b9 63 be f2 ba
       3.8899587e-05 -2.0968326e-05 -0.00039173375 -0.0018519874
000270 12 ce 5b 39 68 14 bf 38 4b 9c b1 b9 f6 ef a0 b5
       0.00020962235 9.111391e-05 -0.00033876518 -1.1990767e-06
000280 f1 86 9f 3a 86 4a 15 ba d7 7a 4a ba 9f 30 4a b7
       0.0012170953 -0.0005695004 -0.0007723993 -1.2051459e-05
000290 e3 1f 9d 3a f2 e3 81 39 56 74 f0 39 4a 32 94 b9
       0.0011987652 0.0002477463 0.00045863044 -0.00028266228
0002a0 81 f1 9c 3a 76 6a e4 ba 2e e7 fe b8 9a b2 bb ba
       0.0011973829 -0.0017426747 -0.000121547244 -0.0014320195
0002b0 69 1a 9a b7 f7 b7 38 b6 9c 6d 8f 3a 29 70 68 39
       -1.8370529e-05 -2.7525218e-06 0.00109427 0.00022167027
0002c0 a6 60 99 b9 2e 02 22 ba 97 96 81 3a 33 d1 e1 39
       -0.00029254443 -0.00061801344 0.0009886798 0.0004307121
0002d0 a9 f8 09 3a 19 1e 27 b8 b6 c0 b3 b8 30 3f c7 b8
       0.00052631885 -3.9843933e-05 -8.57128e-05 -9.500829e-05
0002e0 de 6e 31 39 29 76 aa b7 88 49 3a b9 28 6a f7 bb
       0.00016921337 -2.0320602e-05 -0.00017765735 -0.0075504966
0002f0 47 a5 39 39 20 e0 85 b9 31 03 0b 3a 69 59 cf 3a
       0.00017704545 -0.00025534723 0.0005302905 0.0015819493
000300 0c 79 96 b9 2c fc 13 b9 f4 9e 1c 3a 00 6e 3d 38
       -0.00028700416 -0.00014112954 0.00059746136 4.5163557e-05
000310 12 07 71 38 c6 6b 9a b7 52 ec 9c 3a 4b 25 95 39
       5.7465462e-05 -1.8408417e-05 0.0011972284 0.0002844728
000320 2d bb 1f 3a 5c 26 8f 3a 8b 45 03 39 83 f0 00 b7
       0.000609326 0.0010921466 0.0001251904 -7.685393e-06
000330 2b 9c eb b6 1a 36 98 39 18 97 bf b9 8b 56 d5 b7
       -7.021726e-06 0.00029032008 -0.00036542933 -2.5431878e-05
000340 6d a6 92 b7 f6 81 67 b9 0b f8 df b9 bc 7f 19 b8
       -1.7482054e-05 -0.00022078291 -0.0004271868 -3.6597005e-05
000350 96 30 aa 39 03 16 04 3a 71 41 63 ba 73 87 0d 3a
       0.00032461126 0.00050386804 -0.00086691143 0.00053989067
000360 37 ad 2a 39 f8 3b b7 ba e3 5c 25 bb 1e f5 fc 38
       0.00016276991 -0.0013979664 -0.0025232367 0.00012061953
000370 07 92 8d 38 49 64 c3 3a 0b bd 98 39 bd 55 08 ba
       6.750604e-05 0.0014907207 0.00029132547 -0.0005200764
000380 7a df 08 ba 79 d7 ce ba 9c 09 01 ba 66 cf ff b7
       -0.0005221289 -0.0015780769 -0.00049223914 -3.0494946e-05
000390 13 3f fb b6 e1 16 09 b9 7b 6d 7d 38 a5 2a ff b9
       -7.4877257e-06 -0.00013073861 6.0421862e-05 -0.00048669163
0003a0 7f 03 03 38 b4 e1 75 39 85 15 44 b7 da 35 99 b7
       3.123609e-05 0.00023449102 -1.1687521e-05 -1.8264098e-05
0003b0 c1 0d 13 b9 8a 8e ff b9 59 39 78 b9 4b 5b c1 38
       -0.00014024136 -0.0004874359 -0.00023672487 9.219962e-05
0003c0 de 03 28 ba 6a bc 2f 3a 14 21 a2 b7 48 f3 00 bb
       -0.00064092677 0.0006703796 -1.9327308e-05 -0.0019676257
0003d0 bf 21 af ba 3e a5 25 ba 3c 15 45 ba 81 ce e7 39
       -0.0013361498 -0.00063188735 -0.0007518118 0.0004421361
0003e0 c4 88 12 ba be f1 1d ba 39 13 6d b9 1c 32 f5 b8
       -0.00055898377 -0.0006025097 -0.00022609242 -0.00011691844
0003f0 ba dc f5 b9 5b a7 57 3a b8 aa d0 b6 ec 87 2d ba
       -0.00046894496 0.0008226537 -6.2187573e-06 -0.000661968

bias f4 [256]
000000 12 78 8c b9 e2 0f 60 b1 90 93 d1 b0 b2 39 f6 ba
       -0.0002679234 -3.2605318e-09 -1.5248691e-09 -0.0018785505
000010 66 7d 80 3c a9 7e a0 3d 21 bf 23 3d 2b 1f 77 3c
       0.015684795 0.078366585 0.039977197 0.015083115
000020 20 26 5f 3b b6 8b dd b9 19 b2 cc 3c 51 b1 cc b6
       0.0034049824 -0.00042256498 0.024987267 -6.100316e-06
000030 b0 76 2b 38 92 89 3b b9 be bc 62 b0 09 aa 81 b7
       4.0880113e-05 -0.00017884959 -8.248654e-10 -1.5457177e-05
000040 bc 6d 23 34 38 f4 e2 b8 fe 4f 7a b5 a4 d7 78 b3
       1.5220479e-07 -0.00010822009 -9.324866e-07 -5.7938124e-08
000050 b3 d3 bf 3b 2f 0e 94 34 2c 48 39 b9 9b 1f 41 b1
       0.005854094 2.7577468e-07 -0.00017669861 -2.8103162e-09
000060 39 a1 09 b9 67 c6 c3 b2 f9 3b a3 b9 24 e9 1d ba
       -0.00013125398 -2.279121e-08 -0.00031134466 -0.00060238154
000070 f6 6c 0b 2f 4f d4 2e b9 20 6b 35 3c a0 ba 41 b9
       1.2680687e-10 -0.00016673024 0.011072904 -0.00018475438
000080 6d 88 32 bb 2f 92 d8 b6 3e 23 94 bb d6 6c fd 3b
       -0.002724196 -6.4543196e-06 -0.0045208028 0.0077339215
000090 98 97 2d 3c 10 84 4e 3c 5f 60 89 3b 15 5e 91 b7
       0.010595225 0.012604728 0.0041923965 -1.7329157e-05
0000a0 5a 3e 9c b9 33 44 08 ba e7 93 99 b2 92 40 75 3b
       -0.00029801094 -0.0005198151 -1.7878802e-08 0.003742252
0000b0 67 82 b3 b8 15 c2 82 31 44 8f 3e b7 84 0c 8e b7
       -8.5596745e-05 3.8055625e-09 -1.1358239e-05 -1.6933547e-05
0000c0 86 67 bf b8 d1 d0 16 34 ea 3c ab b8 ee da f0 b5
       -9.1268725e-05 1.4045806e-07 -8.1652615e-05 -1.794511e-06
0000d0 0b df 80 ba 67 58 21 2d e8 55 87 3b ff a8 b3 31
       -0.0009832097 9.17142e-12 0.004130114 5.2287983e-09
0000e0 be 7d ab b8 80 ea 09 ba 6e 2d 02 3c a2 12 16 b9
       -8.177337e-05 -0.00052610785 0.007945402 -0.00014312056
0000f0 bb 10 20 3d d3 bb 39 32 f5 b7 ab 3a 9d a9 d4 b8
       0.039078455 1.08111236e-08 0.0013101088 -0.00010140541
000100 2c 7a 19 b9 41 cc a4 b2 28 3b e6 b6 b7 5f fb 3c
       -0.0001463673 -1.9184997e-08 -6.861421e-06 0.030685289
000110 6e 44 83 3c 84 9c 1d ba fe 2f 44 b5 7a 84 be 3c
       0.01602384 -0.00060123974 -7.308553e-07 0.02325653
000120 2b 24 93 3c 42 d0 55 b9 5f e4 d0 b9 9c b0 d2 39
       0.017961582 -0.00020390845 -0.00039843 0.00040185906
000130 34 40 8d b1 6f ad 12 3c ad 7e aa bb 4f 7e 55 ba
       -4.110939e-09 0.008952483 -0.005203089 -0.00081441266
000140 4c 05 6f b8 13 a1 83 b9 3f eb 28 b9 aa 4a dc 3b
       -5.6986974e-05 -0.00025106277 -0.00016109365 0.006722768
000150 a5 61 8b b0 37 4e 1c 3c 1d 65 c6 3c 03 0d 3b b3
       -1.0141333e-09 0.009540132 0.024218136 -4.3551164e-08
000160 bc b9 51 3c 3f ed a6 3c 41 75 be 31 45 fd bf b8
       0.01280063 0.0203768 5.543058e-09 -9.154765e-05
000170 29 7e ce 3c fd 76 53 35 1b 16 eb 3c b9 11 79 bb
       0.025206642 7.8776776e-07 0.028697064 -0.0038004948
000180 b0 2a 5d b9 c3 1b 13 b8 78 76 15 3a 88 31 35 3d
       -0.00021092105 -3.5073386e-05 0.0005701552 0.04423669
000190 f5 9d 8b 3c 2b c6 25 b9 d3 a5 7c b7 d6 a1 a1 34
       0.017043093 -0.0001580945 -1.5058979e-05 3.0106338e-07
0001a0 27 40 72 3c eb ac 52 b4 da 73 83 b9 79 16 4f b0
       0.014785803 -1.9620681e-07 -0.00025072583 -7.5338097e-10
0001b0 22 1d 76 32 bc 69 db b8 92 8c 2a b9 f3 9c 60 ba
       1.4325709e-08 -0.00010462428 -0.0001626483 -0.0008568309
0001c0 12 1d f6 3b 93 34 3b b4 df a8 61 b2 f4 9d a4 b2
       0.0075107897 -1.7434859e-07 -1.31351205e-08 -1.9163942e-08
0001d0 cf 7e 77 b2 db f5 59 b6 6d e4 47 b9 31 82 a5 b3
       -1.4406125e-08 -3.2478627e-06 -0.00019063214 -7.707093e-08
0001e0 6b d8 4e 33 24 ea 31 3c 46 e0 97 33 0b be 09 b2
       4.8159944e-08 0.010859046 7.0722805e-08 -8.01766e-09
0001f0 d6 3b 49 b6 95 a2 18 b7 fa 12 aa b9 95 48 d1 b9
       -2.9986163e-06 -9.09776e-06 -0.00032439065 -0.00039917664
000200 bf 85 92 b1 ba f5 af 3b 45 36 c0 b0 8d 2f 9c 3c
       -4.2643644e-09 0.005369869 -1.3985263e-09 0.019065643
000210 e0 81 7f 3a cc 2a 1a 34 01 00 00 b6 3a 37 36 b0
       0.0009746831 1.4357937e-07 -1.9073489e-06 -6.6289696e-10
000220 b6 c5 cc b9 d2 44 7c b5 bb 18 2a b1 66 39 aa 3c
       -0.00039057218 -9.397746e-07 -2.4752314e-09 0.020779323
000230 f9 de 1c b7 bd fc 29 b6 d9 56 83 b9 ff c2 c0 3b
       -9.350239e-06 -2.5330075e-06 -0.00025050974 0.0058826203
000240 41 ba 9b 3c a0 2c 1d b6 fe 89 85 b6 a1 61 c6 3c
       0.019009711 -2.3420798e-06 -3.9797733e-06 0.024216475
000250 23 ae 96 3b 50 d3 e1 b1 f3 73 c1 b8 40 88 9e b8
       0.0045983954 -6.5723853e-09 -9.2245544e-05 -7.559406e-05
000260 bd bf d6 3c d1 3a d1 33 1e 0f ac 3b 04 4c 14 b2
       0.026214475 9.7430195e-08 0.0052508255 -8.632018e-09
000270 5b 1a d4 b8 ff de 83 b8 66 ac 3a b7 93 9c 97 3c
       -0.00010113857 -6.288103e-05 -1.1126604e-05 0.018507278
000280 c5 7c a3 b8 5d 66 23 b9 5a 60 4d b1 e1 93 7b b8
       -7.795686e-05 -0.00015583025 -2.9886196e-09 -5.9980786e-05
000290 10 74 09 b9 a1 98 95 b9 5c 8c 20 3d c7 76 c7 b9
       -0.00013108575 -0.00028533212 0.039196357 -0.00038044734
0002a0 d6 b2 72 b8 df f9 f7 32 0b 75 ff b5 0c 8c db 3b
       -5.786385e-05 2.8868213e-08 -1.9033045e-06 0.0067000445
0002b0 40 b0 1b 3d a7 9f 10 ba 9c e3 bc b3 02 b9 88 af
       0.038009882 -0.0005516954 -8.795834e-08 -2.4869712e-10
0002c0 96 5c 59 3d bb 4e 0d ba f0 98 fa 3c 8a 72 76 b9
       0.053066812 -0.0005390455 0.030590504 -0.00023503057
0002d0 e0 f9 37 b2 76 e7 83 3c 53 f9 ea ba d1 72 cb 3a
       -1.0708817e-08 0.01610158 -0.0017927088 0.0015521889
0002e0 02 6b f9 b4 99 75 d1 3a a4 bc 8d b7 35 15 d7 b9
       -4.6457723e-07 0.0015980481 -1.6896352e-05 -0.00041023796
0002f0 1a 5b f5 af df 2f 9d b8 b3 0d c2 b9 25 b5 87 ba
       -4.4629972e-10 -7.49526e-05 -0.0003701277 -0.0010353668
000300 bb 6e 86 b9 0f e8 a9 3b 81 48 42 b5 f3 18 d2 b9
       -0.00025640972 0.0051851342 -7.237614e-07 -0.0004007291
000310 f2 b3 52 3c 9c f9 bb b1 25 f3 3a 3a 47 1b f6 ba
       0.012860285 -5.4707936e-09 0.0007131568 -0.001877644
000320 fc 07 35 b6 91 4b bb 3b de 33 c5 b7 8f 4c 87 ae
       -2.697575e-06 0.0057157953 -2.3508383e-05 -6.152689e-11
000330 e3 4e 04 b6 b1 2e 88 b0 b5 b2 eb 3c 7f e9 23 b9
       -1.971545e-06 -9.908573e-10 0.028771738 -0.00015631875
000340 b3 ad 02 b0 4c 9f af b8 28 93 3b 3b ab da 87 3c
       -4.7540566e-10 -8.3743216e-05 0.0028621648 0.016583761
000350 47 23 aa b9 91 4a c9 3c 8d b1 71 b9 5f c1 f2 b8
       -0.0003245121 0.024571689 -0.00023049694 -0.000115754774
000360 6b 38 9c 34 ef a8 87 ba cc 6f 1a 3c 50 33 1d 3c
       2.9098314e-07 -0.0010350029 0.0094260685 0.009594753
000370 4c 02 82 b1 28 eb 7a b8 ce 44 5b b8 de 5b 2a b6
       -3.783759e-09 -5.982365e-05 -5.227775e-05 -2.5385448e-06
000380 86 44 9f 3d f6 0f 67 b1 b0 7e 02 b7 aa 43 b4 b7
       0.07776742 -3.3623997e-09 -7.778101e-06 -2.148918e-05
000390 12 dd 5b 3c 84 c9 b9 b8 7d 3c 02 3d 3d e6 2d b0
       0.0134194065 -8.859023e-05 0.031795967 -6.326422e-10
0003a0 df c5 fb ba e2 93 18 b9 4d 51 5a b9 95 ad 4a 3c
       -0.001920875 -0.0001455094 -0.00020820387 0.012370487
0003b0 b9 8f 02 b9 c5 cc a2 3c 2a 1f 29 b9 09 17 04 b7
       -0.00012451307 0.019873032 -0.00016128705 -7.873176e-06
0003c0 b4 99 f9 ba 4b 71 f4 b0 b8 5b 87 b9 6d da 1d 3c
       -0.0019043 -1.7785536e-09 -0.00025817542 0.009634596
0003d0 1a 84 7c 3c 09 db b5 b8 ad d9 8f b8 b2 93 e9 3b
       0.015412355 -8.671551e-05 -6.8593166e-05 0.0071282024
0003e0 ef 56 8b 34 72 b2 33 32 9a 23 18 b0 e1 6e 2a b5
       2.595402e-07 1.0459745e-08 -5.534787e-10 -6.3491285e-07
0003f0 ed 17 85 3b dc 11 6f 3a de de 3b b8 a1 1e 53 b8
       0.00406169 0.0009119788 -4.4791836e-05 -5.0334846e-05

weight f4 [256, 256]
000000 9c 86 8f ba f5 b7 31 31 a8 79 e5 2d 4d 72 f4 bb
       -0.0010950151 2.5861457e-09 2.6088312e-11 -0.007459915
000010 b2 a9 ca 3a c7 0a f6 3c 03 13 9b 3b 52 b1 dc 3a
       0.001546195 0.030034436 0.004732491 0.0016837514
000020 09 2c b7 39 e4 c7 dc ba 1b 52 21 3b 2d e5 03 38
       0.0003493729 -0.001684424 0.002461559 3.144627e-05
000030 04 d5 33 37 04 7c 3a ba 46 8a d7 ae 42 ba 77 b8
       1.0718828e-05 -0.00071138167 -9.80163e-11 -5.9062855e-05
000040 b9 d5 0c b3 4e bb e1 b9 05 50 77 b6 30 67 fa 31
       -3.279067e-08 -0.00043054897 -3.6852446e-06 7.2876887e-09
000050 c2 67 1a 3a 9f 62 b3 32 a5 e7 36 ba d6 d6 87 ad
       0.0005890095 2.088319e-08 -0.0006977267 -1.544313e-11
000060 2a a4 09 ba 6c da 6d 33 69 e6 a1 ba 9e f2 15 bb
       -0.00052505976 5.5379516e-08 -0.0012351993 -0.0022880207
000070 6e 63 76 af 3b c0 33 ba a7 c6 ae 3a 27 d3 36 ba
       -2.2408894e-10 -0.00068569527 0.001333435 -0.0006974213
000080 7d 45 38 bc 42 61 cc 37 b3 cb 82 bc 53 97 73 3a
       -0.011247036 2.4363984e-05 -0.015966272 0.00092922634
000090 11 99 9d 3a 13 a6 b0 3a 7c cb ed 39 fb 7c e0 38
       0.0012023767 0.0013477228 0.0004535577 0.00010704432
0000a0 45 90 98 ba 05 0a 04 bb 56 b9 11 30 65 e6 da 39
       -0.0011639675 -0.0020147574 5.301407e-10 0.00041751857
0000b0 bf 0b b4 b9 ef c7 9e 32 42 c8 0f 39 01 86 90 b8
       -0.00034341027 1.848454e-08 0.00013712145 -6.891415e-05
0000c0 07 6a bf b9 f9 23 88 b3 b7 f8 af b9 95 15 ca 37
       -0.00036509355 -6.339537e-08 -0.00033563908 2.4090326e-05
0000d0 5f c6 82 bb b3 d5 ef 2e 3b 16 d7 39 e5 83 5b 32
       -0.003990933 1.0906422e-10 0.0004102456 1.2777467e-08
0000e0 f8 13 b1 b9 9e 2a 08 bb ee f9 4f 3a dc 1f 13 ba
       -0.0003377495 -0.0020777355 0.0007933666 -0.00056123524
0000f0 eb 5e dd bb 26 8c 4f 33 bf c9 76 b9 7b 68 de b9
       -0.0067557 4.8323407e-08 -0.00023535544 -0.00042420984
000100 53 12 16 ba 3d 4a 10 31 f1 13 dd b7 50 9b 5a 3c
       -0.00057247764 2.0996958e-09 -2.6354539e-05 0.013342693
000110 ab 15 d0 3a ea 24 1a bb f6 cb 36 b6 c9 6e 2a 3b
       0.0015875598 -0.0023520538 -2.7238834e-06 0.0026005975
000120 66 5c ca 3b 2c a2 48 ba d8 9c d5 ba a0 6c af b8
       0.0061755655 -0.000765356 -0.0016297353 -8.364883e-05
000130 c8 5a 88 2f 24 d5 68 3a 14 81 93 bc 9a f6 4c bb
       2.480276e-10 0.0008881858 -0.018005885 -0.0031274916
000140 dd af 6e b9 9a 23 84 ba f6 ad 2d ba aa 2a 2e 3a
       -0.00022762963 -0.0010081411 -0.00066253485 0.00066439307
000150 02 e9 22 b0 df f1 6f 3a 30 c8 67 3b f3 9d c0 31
       -5.926638e-10 0.0009153168 0.0035367124 5.605892e-09
000160 0c 41 b7 3a 1d 03 04 3b dc 55 b5 34 5d ce c5 b9
       0.0013981177 0.0020143457 3.3776348e-07 -0.0003772852
000170 c8 45 2a 3b b4 f2 5d 36 31 66 50 3b 8e 7c 74 bc
       0.0025981534 3.3072838e-06 0.0031799192 -0.014922274
000180 fb 10 57 ba 56 be 0c b9 2d 1d 6f 38 c3 ce 8e 3b
       -0.00082041294 -0.00013422346 5.7009212e-05 0.004358144
000190 7e 1c fe 3a 90 bb 20 ba 5a 7b d4 38 cc da 10 33
       0.0019387153 -0.00061314646 0.00010131924 3.3726607e-08
0001a0 d7 0c bd 3a 12 79 98 33 1a 5e 80 ba bf 24 f1 2f
       0.0014423382 7.100074e-08 -0.000979367 4.3863754e-10
0001b0 9f 1d 31 33 1e bd ce b9 ff 76 24 ba d4 b1 5b bb
       4.1237964e-08 -0.00039432285 -0.00062738353 -0.0033522742
0001c0 14 c8 73 3a 24 ba 66 b5 5d 3c 1f 34 a0 57 e4 31
       0.00092995283 -8.5952547e-07 1.4829989e-07 6.645635e-09
0001d0 ad f8 fa b1 b3 a7 a0 38 ab 8b 43 ba d4 61 d8 34
       -7.3042288e-09 7.660631e-05 -0.0007459472 4.0304315e-07
0001e0 e2 ee 18 34 2b ac 8c 3a c6 b2 49 35 b6 c0 ce 31
       1.4243008e-07 0.0010732462 7.5138485e-07 6.0172978e-09
0001f0 ef 24 4f b7 5e 2e 43 39 75 8f a6 ba 31 ed ce ba
       -1.2346761e-05 0.00018613922 -0.0012707548 -0.0015787241
000200 89 a3 4f 31 55 db 0c 3a d0 bd 48 32 fb 9e 10 3b
       3.0215423e-09 0.0005373259 1.16846905e-08 0.0022067416
000210 4a b0 cc 38 e2 96 31 36 ef d8 12 37 16 6b 30 30
       9.7603144e-05 2.646288e-06 8.752787e-06 6.4180605e-10
000220 8d c9 c5 ba 20 03 81 b6 a6 51 23 31 bf 97 1f 3b
       -0.0015089974 -3.8448634e-06 2.3766034e-09 0.0024351922
000230 d3 49 2a 38 34 ca 27 b7 a1 68 7c ba 4d 1d 21 3a
       4.0599913e-05 -1.0001055e-05 -0.0009628628 0.0006146029
000240 15 d6 12 3c 5a 26 1e b7 f6 33 85 b7 bc 11 1e 3b
       0.008962174 -9.426463e-06 -1.5879032e-05 0.0024119457
000250 a6 b2 ec 39 b5 fd 7d 31 3e 13 b8 b9 8a fd 98 b9
       0.0004514653 3.6960561e-09 -0.0003510955 -0.000291806
000260 f3 bb 40 3b ba 82 0d 36 ca 30 13 3a 07 0d 0a 30
       0.0029408901 2.108673e-06 0.0005614875 5.022262e-10
000270 18 27 d5 b9 71 a9 7e b9 5b b9 33 b8 c0 f7 ce 3c
       -0.00040655653 -0.0002428645 -4.284955e-05 0.02526462
000280 6a cf 9d b9 22 d1 20 ba bb 8f ec 30 6c 30 78 b9
       -0.0003009991 -0.0006134679 1.7212111e-09 -0.00023669162
000290 ef 99 0e ba dd 62 93 ba 29 cd 7e 3b ad c5 c6 ba
       -0.0005439808 -0.0011244674 0.003887961 -0.0015165113
0002a0 4e 6f 6d b9 93 30 82 b3 1a ca 23 38 fc f5 40 3a
       -0.00022643546 -6.062432e-08 3.905045e-05 0.0007360873
0002b0 e6 7a 6a 3b 57 28 0d bb 5e b2 1f 31 a2 5f c0 35
       0.003577882 -0.0021538937 2.3238935e-09 1.4332948e-06
0002c0 85 20 4e 3d 90 43 0a bb b2 0e 47 3b 45 bf 50 ba
       0.05032398 -0.00210974 0.003037375 -0.00079630717
0002d0 c5 ee c2 31 71 8e d0 3a 27 f0 e4 bb 62 34 23 39
       5.673288e-09 0.0015911591 -0.006986636 0.00015564405
0002e0 15 4b 85 37 a9 8f 9c b9 33 3f 92 b8 7a 4d d5 ba
       1.5889798e-05 -0.00029861674 -6.973594e-05 -0.00162737
0002f0 98 4f 27 30 87 f3 97 b9 e9 4b d1 ba ba 5f 84 bb
       6.0867356e-10 -0.00028982406 -0.0015968058 -0.004039732
000300 fe 3e 8b ba 7f a3 0a 3b 3a 90 40 b6 82 37 d0 ba
       -0.0010623632 0.002115458 -2.869418e-06 -0.0015885683
000310 6d c5 c3 3a 0b 2c 0a b3 64 87 ad 38 07 14 fc bb
       0.0014936157 -3.2170686e-08 8.274501e-05 -0.007692817
000320 24 1f 30 b7 01 e1 1d 3a a2 ab c0 b8 ee b2 97 2f
       -1.0497668e-05 0.0006022603 -9.1872425e-05 2.7593877e-10
000330 a5 da 02 b7 5a d0 fb 2d 02 8c 66 3b 75 2b 17 ba
       -7.799511e-06 2.8627923e-11 0.0035178666 -0.00057666685
000340 ff cb 89 af c3 1f b2 b9 25 0b 96 39 6c d7 f1 3b
       -2.5065103e-10 -0.0003397447 0.00028618533 0.0073804166
000350 66 cc a7 ba 9f 30 3c 3c 64 c6 6c ba 62 c5 e8 b9
       -0.0012802004 0.011486202 -0.0009032248 -0.0004439755
000360 47 76 8f 34 8d 0c 84 bb 80 f2 90 3a 29 11 79 3a
       2.6721884e-07 -0.0040298165 0.0011058599 0.0009501153
000370 0e 16 59 32 d8 e4 71 b9 b6 64 47 b9 4c b5 ec 37
       1.2636077e-08 -0.00023068802 -0.00019015637 2.8217815e-05
000380 9c b3 0b 3d 56 32 53 31 29 b2 04 b8 83 54 ad b8
       0.034106836 3.0733154e-09 -3.1637177e-05 -8.2650244e-05
000390 6d 6f c9 3b 1c 0b a0 b9 83 e4 97 3b 06 c4 15 30
       0.006147316 -0.00030525855 0.004635395 5.448445e-10
0003a0 db ac f1 bb 56 df 12 ba 0e 07 5a ba 13 af ad 3a
       -0.0073753423 -0.00056027377 -0.0008317091 0.0013251029
0003b0 2f c2 f6 b9 19 dc 06 3b ed 50 15 ba 8d 23 10 39
       -0.00047065454 0.0020577966 -0.0005695958 0.00013746154
0003c0 97 00 f0 bb 33 fb 15 30 43 30 87 ba 70 9f 78 3a
       -0.007324289 5.456286e-10 -0.0010314066 0.0009484207
0003d0 04 52 f4 3a 17 23 c2 b9 71 d0 91 b9 bd 7f 52 3a
       0.0018640165 -0.00037028707 -0.00027811856 0.0008029899
0003e0 71 4b 91 35 cb ef 72 32 a6 26 cd 2f a3 21 7b 36
       1.0825298e-06 1.41407765e-08 3.7316744e-10 3.7421494e-06
0003f0 d5 e3 ec 39 c1 9e e1 38 ec 9f 38 b9 72 5f 4e b9
       0.00045183176 0.00010758406 -0.00017607183 -0.00019681247

bias f4 [256]
000000 bc 3a 94 3c ce 4e a8 38 be 01 14 33 d3 ba cd 3b
       0.018094413 8.025543e-05 3.446052e-08 0.0062783747
000010 59 4f 17 3a 7a 8b bd af 3b e4 18 3d 0a ff 70 38
       0.00057720166 -3.4478004e-10 0.037327033 5.7457983e-05
000020 7d 79 be b3 ff 39 ad 3b 0e 3e 0b 3c 40 a9 f2 3c
       -8.869663e-08 0.0052864547 0.008498682 0.02962172
000030 a7 dd 87 3a 03 06 4d 39 a9 16 06 3b 0c 1a 0f 3c
       0.001036574 0.00019552563 0.0020460284 0.008734237
000040 d3 23 8e 34 7a ae a0 b3 1e 81 f0 3c 35 5a 26 b3
       2.6475627e-07 -7.482318e-08 0.029358443 -3.873193e-08
000050 55 95 86 3c cd 56 87 af 3c b1 5b 3c 09 39 c3 3c
       0.016428629 -2.4618033e-10 0.013408955 0.023830907
000060 ad 0d 38 b2 63 31 ce b2 07 f6 f6 3a 69 da 58 3b
       -1.0713319e-08 -2.4004015e-08 0.0018841632 0.0033089167
000070 1d 85 40 ad 75 cc 27 b3 0c 87 c5 3c a0 e0 38 3d
       -1.09434935e-11 -3.906867e-08 0.024112247 0.045136094
000080 3f 53 bc 3b 2b 83 f1 38 b3 10 8d 3b 0a 1e 71 3c
       0.0057472284 0.000115162075 0.004304969 0.0147166345
000090 a9 7d 6b 3c 11 39 ec 3c 72 1c 00 3d 96 45 88 3c
       0.014373221 0.028835805 0.031277128 0.016634744
0000a0 85 f3 e5 3c d6 69 0f 3d 96 89 20 b3 f5 46 2e b3
       0.02807022 0.035013042 -3.7378037e-08 -4.0577067e-08
0000b0 3a 2a f2 3a d7 e1 00 3b 4b 29 5f 3c ee fd ff b1
       0.0018475719 0.001966586 0.013620685 -7.4503452e-09
0000c0 a4 b5 9b 3c db 58 e8 3c b5 92 1e b3 db cc ce 3c
       0.019007511 0.028362682 -3.692067e-08 0.025244167
0000d0 78 48 23 3b 70 de a9 3c 66 d3 51 3c 2f a1 45 3c
       0.002491502 0.02073595 0.012806749 0.012062355
0000e0 6a bf a7 3c 39 9d 02 b3 5a ba 8f b2 87 96 88 3d
       0.020477016 -3.0410977e-08 -1.6732134e-08 0.06669336
0000f0 22 9e c0 3c 28 98 9f 3b c8 d7 96 3d 4d ff 42 b1
       0.023512904 0.0048704334 0.07365376 -2.8375837e-09
000100 8b f7 69 3c 27 f8 cd b2 6a ef a2 3c 87 3d 83 38
       0.01428021 -2.3977988e-08 0.019889552 6.258027e-05
000110 41 27 88 b2 31 11 9f b0 42 e7 ae b3 0b 87 e8 3c
       -1.5850334e-08 -1.1573659e-09 -8.144572e-08 0.028384706
000120 ae b1 05 b3 d1 c8 84 b3 8e a5 85 3d fc be f2 3b
       -3.1128074e-08 -6.183257e-08 0.06525718 0.007408021
000130 1f eb 41 b1 e7 f8 2d 38 21 a9 01 3b e3 fc 01 3b
       -2.8218847e-09 4.1478223e-05 0.0019784647 0.001983457
000140 07 47 42 3c 16 4e 39 b3 d8 1a d0 af 11 1d c8 af
       0.011857755 -4.3144688e-08 -3.7854053e-10 -3.640044e-10
000150 76 87 8a 38 94 4c bb 3c 95 d4 e3 3c 6d 27 e2 2f
       6.605584e-05 0.022863664 0.027811328 4.1137174e-10
000160 91 22 15 3d 86 5b 51 b3 80 cf 30 b3 75 50 c2 af
       0.03640992 -4.8744845e-08 -4.1166913e-08 -3.5345563e-10
000170 ae b9 4c 3d 1c cf 8a b3 2d 36 53 3c 68 9c c7 b2
       0.049981765 -6.463799e-08 0.0128913345 -2.3237774e-08
000180 65 d7 6f 3c 88 82 af 3c 2d 11 aa 3a da a9 c9 37
       0.014638756 0.021424547 0.001297509 2.404016e-05
000190 e6 0e 90 3d b1 b1 16 af 90 64 55 3b d7 d2 29 b3
       0.07034092 -1.3705549e-10 0.003256116 -3.9540136e-08
0001a0 db 09 e2 3c 7b 77 04 3b 89 81 99 3d 4a 39 fa b2
       0.02759259 0.0020212817 0.0749541 -2.9129883e-08
0001b0 2b 4a 12 b2 ca c9 d9 3c 54 53 1b 3c 9a 6e ff b2
       -8.515182e-09 0.026585478 0.009480316 -2.9736203e-08
0001c0 22 e1 1c 3c 6d 57 55 3c 85 ac db 3b d0 89 e0 3b
       0.00957516 0.013021332 0.0067039155 0.006852366
0001d0 3b 20 f2 3b a7 90 5c ad 79 22 43 b3 52 2b e2 af
       0.007389096 -1.2537671e-11 -4.5433328e-08 -4.1139941e-10
0001e0 c6 22 72 3d 83 7c b0 3d 68 06 56 3c 0c fb 1c 39
       0.059115194 0.08617499 0.013063051 0.00014970842
0001f0 37 4f 90 37 3d 3b 44 b2 e9 bf 56 3d 1b f8 8b 3b
       1.7203025e-05 -1.1422171e-08 0.052429114 0.00427152
000200 42 55 c8 3b 49 a1 6b b1 5a ce 0a 3d aa 33 82 3c
       0.006113679 -3.428868e-09 0.0338882 0.015893776
000210 b6 58 15 b3 7a 02 b3 3d 11 0f fc 3b 91 2d 12 3c
       -3.4772448e-08 0.08740707 0.0076922257 0.008921997
000220 90 8e e5 3a e5 13 32 3c 78 16 d8 3b 58 b4 51 3c
       0.00175138 0.010869001 0.0065944754 0.012799345
000230 7d db f9 3c ad 7e 7a 3d 24 4c f4 3c 12 55 fe 3b
       0.030500168 0.061155964 0.029821463 0.007761606
000240 d3 b1 5d 3d f2 fa 07 3b 60 e3 1c 3d 69 be b2 b2
       0.054124665 0.002074894 0.03830278 -2.0808516e-08
000250 30 3a 9b 3d a1 9c ea 3c 61 17 f3 31 47 eb 4e 3a
       0.07579458 0.02863914 7.0748887e-09 0.00078933354
000260 17 60 d0 3b d7 96 45 b2 eb b8 e8 3a 93 e6 1c 3a
       0.006359111 -1.1501206e-08 0.0017755305 0.0005985286
000270 d0 f6 5b 3b 27 52 65 ad 7b 6a 0d 3d b8 63 39 b3
       0.003356386 -1.3035384e-11 0.034525376 -4.3164363e-08
000280 42 09 18 3b c6 cb 9b 3c 58 1a 7c b2 68 e9 c0 b3
       0.0023198877 0.019018065 -1.467432e-08 -8.983153e-08
000290 0a a6 ce 3b 5f e1 4c 3c de 1f f9 b1 c6 9e c0 b1
       0.0063064145 0.0125049045 -7.2504767e-09 -5.605986e-09
0002a0 c8 fb d2 3b c7 94 9c 3c b8 40 e9 af bc 6e f2 3c
       0.006438706 0.019113911 -4.2428439e-10 0.029593818
0002b0 d6 3c 3a 3d 66 c8 f3 b2 f0 8d 96 3d bb ac 15 3b
       0.045468174 -2.8380054e-08 0.07351291 0.002283855
0002c0 28 06 ed ae 2c 26 d2 b1 4a 18 ba 35 c8 99 1d b3
       -1.0778606e-10 -6.116144e-09 1.3865149e-06 -3.6694274e-08
0002d0 f5 7c 2a b2 b3 c3 0b 3a b5 e6 ff b1 ea b2 08 b3
       -9.923714e-09 0.00053315907 -7.447705e-09 -3.182769e-08
0002e0 71 9b 0d 3d 9c 83 31 af 9c 7d b0 3c 73 f3 39 3d
       0.03457207 -1.6144813e-10 0.02154427 0.045398187
0002f0 a7 eb a3 3c 8c fb 83 b2 3d b2 d3 39 d0 4e 17 3d
       0.020009829 -1.5364797e-08 0.00040377854 0.036940396
000300 4f f4 59 3d 69 12 91 b3 3c 40 08 3d fb b4 d9 3b
       0.053211506 -6.7554375e-08 0.033264384 0.006643889
000310 e5 59 43 3c 08 57 17 39 74 b8 0d b2 fd 1a 9d 3c
       0.011923288 0.00014432904 -8.24922e-09 0.019177908
000320 4d 7d 57 b1 07 f9 c4 3c d2 7d 4e 3b 42 db ae b1
       -3.1357843e-09 0.024044527 0.00315081 -5.0889932e-09
000330 b1 ac da 38 39 97 8d b2 56 51 9a b2 0c fb d2 3c
       0.00010427216 -1.6483328e-08 -1.7964947e-08 0.025754474
000340 39 c4 a8 3d 0a bf 0b 3a 64 1a a3 b3 3e b1 40 3c
       0.082405515 0.0005330896 -7.5950794e-08 0.011761008
000350 d9 12 64 af 97 f4 0b 3d 36 82 d6 3a 0e fe 85 b1
       -2.0743175e-10 0.034168806 0.001636571 -3.899692e-09
000360 3b 0c 79 3b 8f 44 0b 3c 3c 8f 8e 3c 40 33 30 3d
       0.0038001675 0.008500232 0.017402284 0.043017626
000370 06 35 27 3d 94 5f 93 b1 b0 58 cb b2 a8 02 41 3b
       0.04082205 -4.289129e-09 -2.367264e-08 0.0029451046
000380 68 c1 04 3c db c0 96 3a 6a b0 d9 3c e2 1c 54 3b
       0.008102752 0.0011501567 0.026573379 0.0032365848
000390 7e 23 9e 39 f8 17 7b 3b c4 c4 01 b2 d8 93 ae 3d
       0.00030162552 0.0038313847 -7.553528e-09 0.08524293
0003a0 f8 55 90 3c 6f 9c 05 b3 bc eb be b2 d9 c6 e5 3c
       0.017619118 -3.110875e-08 -2.222611e-08 0.02804892
0003b0 ab 2d 20 3c 78 57 d7 b0 a9 17 85 3d 22 46 7f b3
       0.009776513 -1.5668169e-09 0.064986534 -5.94356e-08
0003c0 8a 8f 31 38 8b 91 78 3a f9 00 cc 3c 4f de 37 3b
       4.233377e-05 0.0009482137 0.024902808 0.002805609
0003d0 87 f4 02 3d 94 fa 52 3c 29 af 84 3a 05 fc e1 3c
       0.03197148 0.012877125 0.0010123003 0.027585993
0003e0 69 71 05 39 76 2a d2 3b ed ae aa 3c 5e 18 05 3d
       0.00012726117 0.006413753 0.020835364 0.03249394
0003f0 5e 0d c5 36 7f f8 86 3c 75 dc 92 3c f4 36 81 b3
       5.8726137e-06 0.016475914 0.017927388 -6.0170265e-08
